src/models/behavior_DQN_policy.pth (torch, 8235 bytes, 6 tensors)

fc1.weight f4 [32, 8]
000000 30 c5 86 bd 41 6b 85 3f 26 90 de 3f 01 29 cf be
       -0.06580579 1.0423356 1.7387741 -0.4046097
000010 29 2c 89 3f 73 6c 0d bf 03 d7 a6 bb 7a dc bb be
       1.0716602 -0.55243605 -0.0050915494 -0.36691648
000020 40 c4 ae be e5 c8 5a 3f 04 b2 65 bf a1 d2 eb 3f
       -0.34134102 0.8546279 -0.89724755 1.8423654
000030 f6 72 d3 3f da f3 41 3f ab c1 b0 bf 13 ef 56 bf
       1.6519458 0.7576271 -1.3809103 -0.8395855
000040 62 0a 3d 3e 90 ff cc bc 43 12 cd bd c3 d8 18 3e
       0.18460992 -0.025024205 -0.10013249 0.14926438
000050 fa 0e 78 40 87 ab 85 be c5 fd a8 bd ca 2e 32 3f
       3.875914 -0.26107427 -0.08251528 0.69602644
000060 d2 d6 56 3f d2 a1 24 bf 6d 0a 18 bf 98 5a 86 bf
       0.8392154 -0.6430942 -0.5939091 -1.0496397
000070 88 c3 fd 3f 0c f0 db 3e 7d 10 0d 3e 57 09 17 3e
       1.9825296 0.4295658 0.13775821 0.14749657
000080 bf 71 3f 3f 61 95 2b be a8 3b 31 3f f4 0c 24 bf
       0.7478294 -0.16756202 0.69231653 -0.64082265
000090 bc d9 b4 3f b3 46 c0 3f 83 7f 20 3d 14 58 a0 3e
       1.4128947 1.5021576 0.039184105 0.31317198
0000a0 18 83 05 3e 20 5f c6 3e 3c 7d 61 3e 58 4d fe 3d
       0.1303829 0.3874445 0.2202043 0.12417096
0000b0 bb 30 1d 3e 59 5e 70 be 20 76 8c bf 71 e5 cb 3e
       0.1535062 -0.23473491 -1.0973549 0.39823487
0000c0 87 ea 28 be 90 95 8d bf 8c 76 20 bf d1 5d a3 be
       -0.16495715 -1.1061268 -0.6268089 -0.31907514
0000d0 82 18 a7 bf 9a 0f 3a bf ce a8 1e 3f 51 a0 79 3e
       -1.3054354 -0.72680056 0.61976326 0.24377562
0000e0 56 92 d8 be fe d0 03 3e 08 c0 ca be 73 d6 b6 be
       -0.42299145 0.12872693 -0.39599633 -0.35710487
0000f0 6b dd bf 3e 79 f7 8e 3f ba 0c 03 3f 21 3d 06 3f
       0.37473616 1.1169273 0.51191294 0.52437025
000100 d6 72 b8 bf 2d 30 8f be fe 9b 0c 3f a2 81 61 3f
       -1.4410045 -0.27966443 0.54925525 0.8808843
000110 6b 4e 28 bf 9b 10 ef be 11 d9 ed 3e 56 4d 13 3e
       -0.65744656 -0.46692356 0.4645467 0.1438497
000120 8c 46 8e bf 61 ce a4 3e bc 76 c7 bf 89 7e c0 bf
       -1.1115279 0.32188705 -1.558311 -1.5038615
000130 92 80 b0 3f 5d 6e c9 3d 5c a5 bb be 57 92 52 bc
       1.3789237 0.09835503 -0.36649597 -0.012852273
000140 8e f2 e0 3b 10 ea fe 3e c3 5a 6a 3d 62 08 ea bf
       0.0068648523 0.4978795 0.057215463 -1.8283808
000150 5c 57 ab 3d 70 00 99 3f 78 5a 78 be 2b 70 f9 bd
       0.08366272 1.1953259 -0.24253261 -0.121795975
000160 9e 05 c2 3f 2f 2a 7f be 61 c6 e0 3f 32 67 ea bf
       1.5157964 -0.24918436 1.756054 -1.8312743
000170 51 12 56 bf 2c 86 07 bf f5 ce 9f 3b 5d b1 61 3d
       -0.836217 -0.52939105 0.004876966 0.055100787
000180 4e c2 26 3e 7c 88 57 bf d6 ed 94 bf 34 bf 3b be
       0.16285059 -0.84192634 -1.1635082 -0.18334657
000190 d9 32 46 3f 93 34 4b 3f d2 28 d2 3e 91 4a ed 3b
       0.7742134 0.79377097 0.41046768 0.007241555
0001a0 10 ed b2 bf 0b 99 96 bd ee da dc bf 60 8a 1d bf
       -1.3978596 -0.073534094 -1.7254312 -0.6153927
0001b0 57 99 89 3f 28 e5 7e 3e d9 52 12 bf 8b 50 eb 3d
       1.0749921 0.24892104 -0.57157665 0.11489972
0001c0 bb d6 19 bf e0 a6 a8 3d 38 86 a2 be a5 99 0e bf
       -0.6009328 0.08234954 -0.31743026 -0.5570319
0001d0 a0 bb 0e bf 0c 51 c6 3e 91 f1 38 3f 28 65 89 bf
       -0.55755043 0.3873371 0.722436 -1.0733995
0001e0 29 5d 43 3f cd 80 38 bd db c3 e9 bd 60 dd 6b be
       0.76314026 -0.04504471 -0.114143096 -0.23033667
0001f0 f9 c6 2e 3f 4f 6a 5a 3f 8c dd b2 3e 9d 2e cd 3e
       0.6827236 0.85318464 0.34934652 0.40074626
000200 1a 90 d2 3e 1c b2 6c 3e f6 08 4c c0 07 09 38 bf
       0.41125566 0.23114818 -3.188047 -0.71888775
000210 ae 46 0c 3f 9b f0 b1 3d 1d 4b 82 3f c0 55 e5 3d
       0.5479535 0.0868847 1.0179173 0.11197996
000220 09 d2 6e be c9 57 48 bf 47 7f ce 3f 5a 24 7e 3f
       -0.2332231 -0.7825895 1.6132592 0.9927422
000230 89 75 04 c0 65 bf 78 3f 9f ac f4 be 1a c1 10 bf
       -2.0696738 0.97167045 -0.4778795 -0.5654465
000240 b1 29 c5 3e 17 57 b2 3e 2e 2b c0 3d 84 d5 e9 3d
       0.3850837 0.3483207 0.09383236 0.11417678
000250 81 89 95 bf b3 1d aa bf e6 d0 d1 be b9 de 67 3f
       -1.1682588 -1.3290313 -0.4097969 0.9057422
000260 7a 8f 61 3f 24 43 00 c0 c5 be 7e bf 88 3e 2a c0
       0.8810955 -2.004098 -0.9950984 -2.6600666
000270 17 54 bf 3f 33 7a d3 3d 95 92 48 3e 39 4f d4 bd
       1.4947537 0.10326042 0.19587167 -0.10366673
000280 df 8c d9 be e1 40 7a 3c 7a 5f bb bf c8 6e 93 bf
       -0.4249029 0.015274257 -1.4638512 -1.1518183
000290 c3 53 9f bc 63 72 03 be 02 4a 50 3f 6e af 83 3f
       -0.01944912 -0.12836604 0.81362927 1.0287912
0002a0 8e b7 7f 3e c5 f2 b8 3e 5a 28 ab 3f 5f 38 14 bf
       0.24972364 0.36122718 1.3371689 -0.57898515
0002b0 42 63 da 3f 9a c8 c7 3f 44 df d6 bf 18 c5 1d 3d
       1.7061541 1.5608094 -1.6786885 0.03851804
0002c0 da 06 3a 3e 50 98 62 3d 0f b1 ae bd 37 e7 28 c0
       0.18166676 0.055321038 -0.08529865 -2.6391122
0002d0 17 13 6d bf 72 ab c3 bf cd ad 3b bf 64 16 48 bd
       -0.92607254 -1.5286696 -0.73312074 -0.04884948
0002e0 43 bb 15 bd 11 3e 54 be 40 e2 19 bf ee 5c 80 be
       -0.03655554 -0.20726801 -0.60110855 -0.250709
0002f0 13 b4 12 be 71 ad 32 bf a6 da 9c 3f 66 a3 2f 3f
       -0.14326505 -0.697959 1.2254226 0.686087
000300 91 54 3c be 20 54 a1 c0 7b c8 2f 3f a3 02 e3 bf
       -0.18391635 -5.041519 0.68665284 -1.773518
000310 56 50 bb 3e fc b0 45 bf 4e e5 98 bf 81 ff 90 3f
       0.3658473 -0.7722318 -1.1944978 1.1327974
000320 63 d5 9b be 71 e6 df be 10 3e e1 bf fa b3 9a 3f
       -0.3043624 -0.437305 -1.7597065 1.2086174
000330 85 cf 10 c0 2b 81 c4 be f9 c2 fe 3e 6a 98 4a 3f
       -2.262666 -0.38379797 0.49758127 0.79138815
000340 db 8f 2e 3e 09 ca 9c be c2 ea dc bf eb 65 97 bf
       0.17047064 -0.3062289 -1.7259142 -1.1827978
000350 d9 e9 84 3e 82 8a a6 be bc 4c 53 3e 01 83 af 3d
       0.25959662 -0.32527548 0.2063474 0.08569909
000360 a4 be dc bf 14 06 82 be 23 6b 62 bf e9 a3 8f bd
       -1.7245679 -0.25395262 -0.8844473 -0.07013685
000370 ff 11 29 bf 64 c8 b9 bf d2 a6 44 bf bc f7 9a 3f
       -0.66043085 -1.4514279 -0.7681705 1.2106853
000380 a7 9f 1b 3e 0e b4 9d bc 4d 62 35 40 0c 18 83 bf
       0.15197621 -0.019250896 2.8341248 -1.0241714
000390 f4 5f 83 3e 7e 50 2f 3f d0 9a 41 be ba 7b fa 3e
       0.25659144 0.68482196 -0.18906713 0.4892252
0003a0 08 11 b8 be 7c b2 35 bf 58 79 ad bf 48 b9 c6 be
       -0.35950494 -0.7097547 -1.3552656 -0.38813233
0003b0 5e 32 9c 3f c3 54 4e 3f 70 d3 32 3e c9 62 b5 3e
       1.2202871 0.80598086 0.1746347 0.3542693
0003c0 6a 93 c7 be a8 80 3a 3f 94 b3 1e 3e 2b 31 19 bf
       -0.38979656 0.72852564 0.15498191 -0.5984065
0003d0 ca e6 ea be 24 a9 e1 3f 5d 00 94 be a9 75 b3 bd
       -0.45879203 1.7629743 -0.28906527 -0.08762676
0003e0 f7 6e b9 3c 4f 84 65 3f d3 e4 76 3f 00 d9 0e 3f
       0.02263592 0.8965501 0.9644291 0.55799866
0003f0 64 51 10 bf 00 d1 a7 be b6 57 0d 3d bb b6 19 3f
       -0.5637419 -0.32776642 0.034507476 0.6004445

fc1.bias f4 [32]
000000 fe d7 5e 3f 1e e2 f1 3e a8 61 89 3d e3 42 5e bf
       0.8704833 0.47242826 0.067080796 -0.8682081
000010 21 91 89 be 03 5e 42 3d a4 36 0e bf af 44 50 3e
       -0.26868537 0.047452938 -0.55552125 0.203387
000020 48 ed 4e 3f 6f 9d 8f 3e 6a 1d 80 3f d9 a4 10 bf
       0.8083081 0.280498 1.0008976 -0.5650154
000030 bb 08 cc be ff 1f 32 3f c8 6e 46 bf b7 79 54 3f
       -0.3985041 0.6958007 -0.7751279 0.8299822
000040 3f d1 10 3c d3 71 d0 3e 19 50 27 3e 42 1a f2 3f
       0.008838951 0.4071184 0.16339149 1.8914263
000050 84 a1 05 bf af 41 12 3e d5 24 77 3f 6b d6 c2 3e
       -0.5219958 0.14282869 0.96540576 0.38054213
000060 da 3f 3f 3f 03 43 3d be 9d b8 aa be 5b 4e 2d 3e
       0.74706805 -0.18482594 -0.33343974 0.16924421
000070 cb 33 75 3c 65 c7 11 bf de 81 53 3f 47 f4 80 3f
       0.014965962 -0.56944877 0.82620037 1.0074548

fc2.weight f4 [32, 32]
000000 f3 28 30 3e cc 39 3b 3f f9 67 9a bf 69 da 8c 3f
       0.17203121 0.73135066 -1.206298 1.1004153
000010 7c a6 ab 3e 50 bc fc bb 94 59 44 bd bc b4 3a 3e
       0.33525455 -0.0077128783 -0.04793699 0.18233007
000020 1b c0 96 bf 20 b0 1c 3f 7d dd 1b 3f 59 5f 97 3d
       -1.1777376 0.61206245 0.6088484 0.07391233
000030 fb 9c 72 3d aa 4b 65 3f cd 43 18 3f 58 9f 9f 3e
       0.05923174 0.8956858 0.59478456 0.31176257
000040 11 96 ed be af fb b6 3d d8 34 5f bb 9a 3f 0a bf
       -0.46403554 0.089347236 -0.0034058597 -0.540033
000050 55 f6 56 3f c4 d0 b0 3e 9d 85 aa 3e 15 1a 8b bd
       0.8396962 0.34534276 0.33305064 -0.06792084
000060 8c 74 70 bf af 17 0f c0 5c 36 18 3e 1e 46 8d be
       -0.93927836 -2.2358205 0.14864486 -0.27592558
000070 76 16 b8 bf 43 7d 9d 3f 55 d9 51 3f 15 31 72 3e
       -1.4381855 1.2303852 0.8197225 0.23651536
000080 23 4c cb 3e 7c f6 15 3f 2d 6d 7d bf 86 9f 3c 3f
       0.39706525 0.5857923 -0.98994714 0.73680913
000090 8b 54 1f bd 64 90 7f bd 71 14 bc 3f 4d 4f a7 3c
       -0.038898986 -0.06239356 1.4693738 0.020423556
0000a0 cf d4 4c bf bf 56 12 3f 47 de f5 be e5 c2 fe 3f
       -0.8001222 0.57163614 -0.48021147 1.9903227
0000b0 1c c6 1c 3f 1a ee a8 3e fd 65 00 3f e8 24 00 be
       0.6123979 0.32994157 0.5015562 -0.12514079
0000c0 b1 78 a0 be ef 9b ad 3d 4d 76 6a 3f f4 d0 9d bf
       -0.3134208 0.084770076 0.9158676 -1.2329392
0000d0 98 99 8e 3f c7 c6 b8 3d c0 2a 94 3f 3c 25 47 3e
       1.1140623 0.09022289 1.1575546 0.19447798
0000e0 44 9b 4f be ac 75 4c bf 5f 5b 93 3e fc 17 e4 bd
       -0.20274073 -0.79867053 0.28780648 -0.11137387
0000f0 9c 37 2d bf bb 9e 2e bd 94 3b 64 be d3 77 93 3e
       -0.6766298 -0.042631846 -0.22288352 0.28802356
000100 2f 00 8b bf c4 64 98 3f 71 62 66 bf a2 17 5a be
       -1.0859431 1.1905751 -0.8999396 -0.21298078
000110 32 e9 d8 be e5 d2 b1 be e6 1a 65 bf 57 6d 62 be
       -0.42365414 -0.34731212 -0.8949417 -0.22112022
000120 a2 ee c2 bf 7a 3c 98 3f 5b 64 cd be 27 be 48 bd
       -1.5229075 1.1893456 -0.40115628 -0.04900947
000130 c8 58 78 be 40 11 29 3f 93 17 a2 3f 76 8d f6 3e
       -0.24252617 0.66041946 1.2663444 0.481548
000140 68 4c 9c 3e ba 5e c1 3e b8 81 99 3e fb 9e 99 3e
       0.30527043 0.37767583 0.2998178 0.30004105
000150 0b 09 e8 3d 7e 45 72 3f 18 4d a4 3b 49 69 19 be
       0.1132985 0.94637287 0.005014073 -0.1498157
000160 b3 a8 6a 3f 41 34 a5 bf 3f d4 37 3e 8e 77 24 bf
       0.91663665 -1.2906572 0.17952059 -0.64244926
000170 41 0c 4f be 74 67 55 3f f6 93 86 bf ee 3e 62 bf
       -0.20219518 0.8336098 -1.0513904 -0.88377273
000180 fc e4 b9 3e 19 76 b9 3f f7 52 e6 bf 08 12 99 3f
       0.36307514 1.4489166 -1.7994069 1.1958628
000190 db 37 b0 be a7 e9 66 3a 2d f3 c9 3e 46 01 c7 bd
       -0.34417614 0.00088086206 0.3944334 -0.0971704
0001a0 bd 3e 38 bf b0 82 73 3f c1 6e 91 3e 0f 4a 1f bf
       -0.7197073 0.9512129 0.2840481 -0.6222238
0001b0 18 9c 68 3d 2b 3b 54 3f c7 cb 9b 3f 8c 84 2d 3f
       0.056789488 0.82902783 1.2171563 0.67780375
0001c0 17 33 e1 3d 67 3c 6a bf f7 f4 b7 3e 40 40 27 bf
       0.10996073 -0.91498417 0.3592908 -0.6533241
0001d0 ef 88 e4 3f 77 ac c9 3e 14 ef 1f be a8 18 21 be
       1.7854289 0.39389393 -0.15618545 -0.15732062
0001e0 3f 94 31 bf 93 6d 9c bf fa f0 19 3f 41 bb ce 3e
       -0.6936683 -1.2220939 0.60133326 0.40377238
0001f0 2a 4c b5 bf 60 ac b3 3f 6b cd 0f 3e 0e d1 19 3f
       -1.4163868 1.403698 0.14043204 0.6008462
000200 8e 52 f9 3e 07 71 e7 3f 4d 02 d3 bf b6 a9 9d 3e
       0.48695797 1.8081368 -1.6485077 0.30793542
000210 6e 0c 3d bf fe 35 e9 3e f6 a6 c4 be 2b 10 7e bf
       -0.7384709 0.45549005 -0.3840863 -0.9924342
000220 f7 ea b6 be e2 4d 38 3f 5e ce 2b bd ab 31 45 bf
       -0.3572614 0.7199384 -0.041944854 -0.7702891
000230 fd 60 f8 be 1e 86 40 3e 3c ec 9c 3e cf 2b 18 3f
       -0.48511496 0.18801162 0.30648983 0.59441847
000240 05 c2 0c bf 5c a2 d6 bf e5 a7 89 3f be 38 33 bf
       -0.5498355 -1.6768298 1.0754362 -0.70008457
000250 ea 4b 50 bd 88 60 9c 3b 78 28 6d 3e e5 b3 df bd
       -0.050853647 0.0047722496 0.23159969 -0.10922984
000260 23 14 91 bf fd 39 81 bf 62 94 4b 3f 45 13 bd 3e
       -1.133427 -1.0095822 0.7952329 0.36928764
000270 d3 6f af bf 1f 72 54 bf 3d f6 35 be 69 4f b5 3e
       -1.3706001 -0.82986635 -0.17769714 0.35412148
000280 70 8d d7 3e ec b0 f9 3e 56 13 06 bf cc 6c b0 3e
       0.42100096 0.48767793 -0.52373254 0.34458005
000290 ca 2d cd be 08 8f 24 3f ca 6d 25 3f 93 ed 16 be
       -0.40073997 0.6428075 0.6462065 -0.14739065
0002a0 e0 0d 87 bf de 70 b5 3e 6a f4 d0 be 04 56 d1 3f
       -1.0551109 0.35437673 -0.40811473 1.6354375
0002b0 91 d4 0a 3d 33 5d 0f 3f ab 30 4b 3f 66 6c 0d bf
       0.033894125 0.56001586 0.79371136 -0.5524353
0002c0 25 ce a6 bf 30 5d 3c 3f 6a 96 52 3f 4d 84 06 c0
       -1.303166 0.7357969 0.82260764 -2.101825
0002d0 e5 44 db 3f fc 39 b7 be 47 fe 9d 3e 87 d4 2e be
       1.71304 -0.35786426 0.3085806 -0.1707326
0002e0 86 c8 00 bd 02 a8 f9 bf eb bd 62 bf 88 85 87 3f
       -0.031441234 -1.9504397 -0.8857104 1.0587626
0002f0 c5 c8 50 bf ac 21 46 bf bf 11 18 bd 27 16 10 3f
       -0.8155635 -0.7739513 -0.0371263 0.562838
000300 9c 9c d0 3e 62 e7 c6 3f 7e ec 95 bf cf 6b 65 3f
       0.40744483 1.5539362 -1.1712797 0.8961763
000310 d1 0f ae 3e ef ae f5 3e 12 d2 7f 3e 9f 84 5c 3e
       0.33996442 0.47985026 0.24982479 0.21534966
000320 8b a7 23 bf 89 70 a5 3f 4b fd 01 3f db c6 89 bf
       -0.63927525 1.2924968 0.5077712 -1.0763811
000330 f6 7e aa be 10 9d a5 3f 90 a9 ad 3f f7 83 f5 3e
       -0.33299989 1.2938557 1.3567371 0.47952244
000340 fd 0d e1 3d 08 92 89 bf 69 6e 0b 3f b4 e5 e8 be
       0.10988996 -1.074769 0.5446535 -0.4548775
000350 7a e9 db 3f 72 e0 a0 3f 31 6c 0b bf 32 51 a6 bd
       1.7180626 1.2568495 -0.5446196 -0.081209555
000360 c3 4a 23 bf e0 db 53 bf 06 98 51 3e d0 df 5e 3f
       -0.6378595 -0.8275738 0.20468149 0.8706026
000370 d9 d2 0d bf 90 de e5 3f 2b ae c6 3e 03 3d 46 3f
       -0.55399853 1.7958546 0.38804755 0.77436846
000380 25 f6 81 3e da 4a 9c 3f bb c4 cd bf 9e 81 05 3f
       0.25383106 1.2210343 -1.6075662 0.52150905
000390 d1 e6 cf be d4 3f c9 bb bf 0c c8 3e 01 d0 97 be
       -0.40605786 -0.006141642 0.39072224 -0.29650882
0003a0 14 67 e3 be 77 5c 38 3f 3b ce 15 bf e8 8b a0 3f
       -0.4441458 0.7201609 -0.5851781 1.2542696
0003b0 f7 cf 37 be ef c3 75 3e 91 88 b9 3f 1c 28 8d 3e
       -0.17950426 0.24000524 1.4494802 0.27569664
0003c0 47 5d 27 be fd 1b 5f bd 46 3b 52 3f 64 be a1 bf
       -0.16344176 -0.05447005 0.82121694 -1.2636228
0003d0 99 6a ca 3f 51 32 eb be 55 49 d6 bd 56 c5 69 bc
       1.5813781 -0.45936826 -0.10463206 -0.01426824
0003e0 6a 69 5e 3e de 15 1b bf 33 29 93 3e ea f2 ec 3e
       0.217199 -0.6058024 0.2874237 0.4627908
0003f0 7b 31 2a be a6 f1 f7 3e f7 86 fa be 55 35 4d 3f
       -0.16620438 0.4842655 -0.48931095 0.80159503

fc2.bias f4 [32]
000000 25 09 22 3f 12 de b6 be e4 bb 84 bd f2 97 82 3c
       0.63295203 -0.357163 -0.0648115 0.015941594
000010 37 3e 85 3e f6 e1 a4 be 2c 5d 24 3e 46 92 1a be
       0.2602403 -0.32203645 0.16051167 -0.15094861
000020 86 19 d3 bd 25 f3 00 3f 9e 1d 1a bd 70 52 f2 be
       -0.103076026 0.5037101 -0.0376259 -0.4732852
000030 85 cd 30 be 70 dc 00 3f 15 42 95 3e 3c 96 7c 3e
       -0.172659 0.5033636 0.2915198 0.24666685
000040 30 11 ab be 89 87 a8 3e 12 f3 85 3d 0d c0 23 3f
       -0.3341155 0.32915905 0.065405026 0.6396492
000050 6d 66 12 40 9a 23 f3 3c d3 82 9b 3e de 80 a3 3f
       2.2875016 0.029680062 0.30373248 1.2773702
000060 fc f4 13 be 57 06 85 3f 42 c3 0d 3d 37 93 0d bd
       -0.14448923 1.039256 0.03461004 -0.034564223
000070 8a 40 1c be 07 58 82 3e c0 ac 5a 3e aa b1 01 be
       -0.15258995 0.25457785 0.21354961 -0.1266543

fc3.weight f4 [4, 32]
000000 d0 8c 50 bf 00 d6 47 bf f1 11 31 be f5 ff 7f bf
       -0.8146486 -0.78060913 -0.17292 -0.99999934
000010 e5 24 4f bf 01 07 bd bf 76 07 79 bf 9e a4 79 bf
       -0.8091567 -1.4767762 -0.9727701 -0.9751681
000020 8f 06 6e bf 22 68 4f bf 7c b0 b2 bf 57 61 30 bf
       -0.9297876 -0.8101827 -1.3960109 -0.6889853
000030 c4 d2 7a bf 42 af 24 40 f9 3a ac bf 34 a1 d8 be
       -0.9797785 2.573197 -1.3455497 -0.42310488
000040 59 3e 02 c0 e6 d1 4e 40 11 b6 12 c0 9b ae 85 40
       -2.0350554 3.2315612 -2.2923625 4.177564
000050 c8 4e 5c 40 b0 40 af 3e 5c 83 81 bf 84 e7 11 40
       3.4423084 0.3422904 -1.0118213 2.2797556
000060 e8 d0 cd bd 58 9c 00 40 6f 1e 04 c0 c1 1b 5d 40
       -0.10049611 2.0095425 -2.0643575 3.454819
000070 38 ec 25 3d 4f 18 29 c0 9a cf 61 bf 68 9b fb 3d
       0.04050848 -2.6421087 -0.882074 0.12285501
000080 66 a3 a3 bf d4 41 4b be 8e 81 8f bc e8 4b 13 bf
       -1.278424 -0.1984933 -0.017517831 -0.575377
000090 7c c3 4f bf 7b d1 c3 bf 1b 6e 99 bf 50 c0 81 bf
       -0.8115766 -1.5298303 -1.1986727 -1.0136814
0000a0 c5 8a 24 bf 19 4a b0 bf ad 3e 59 be 6d de 61 bf
       -0.64274246 -1.3772613 -0.21215315 -0.8823002
0000b0 32 bf a2 bf 97 f4 81 3f c1 dd 8e bf 26 10 94 bf
       -1.2714598 1.0152768 -1.1161424 -1.1567428
0000c0 a6 05 d6 bf d0 06 34 40 e6 ba 0c 3f c2 37 97 40
       -1.6720474 2.8129158 0.54972684 4.7255564
0000d0 d4 4b 73 40 58 09 6b bf f1 8f b1 be 8c 4f 25 40
       3.8015032 -0.9181113 -0.3468013 2.5829802
0000e0 85 3e 6f bd b5 4a a1 3f 50 dc 33 bf fe ce 57 40
       -0.058409233 1.2600924 -0.70258045 3.3720088
0000f0 20 f8 ea bc 69 89 eb bf db 90 d5 bf 50 51 7a 3c
       -0.028682768 -1.8401309 -1.6684831 0.0152781755
000100 9d 28 22 bf 51 4e 27 bf b5 2a 7a bf fb fd 78 bf
       -0.6334322 -0.65353876 -0.97721416 -0.97262543
000110 42 57 bf bf 2b 23 6f bf 79 35 8a bf be 2c 5e bf
       -1.4948504 -0.9341304 -1.0797569 -0.8678702
000120 7d b0 c2 be e2 9b 1e bf c1 e8 bb be 61 4f 5c bf
       -0.38025275 -0.6195661 -0.36701015 -0.8605862
000130 35 7f 98 bf 13 5e 8c bf 10 17 b6 bb db d1 40 bf
       -1.191382 -1.0966209 -0.0055569485 -0.75320214
000140 39 a6 89 bf 76 c1 45 40 84 24 92 3f 70 8c 94 40
       -1.0753852 3.089933 1.1417394 4.6421432
000150 0e 3b 83 40 66 06 87 bf bf 14 91 bf c4 60 36 40
       4.100959 -1.0548828 -1.1334456 2.849656
000160 b9 c1 97 3d 26 4e b3 bf db e9 a5 bd f3 ad 82 40
       0.074099965 -1.4008224 -0.08101245 4.083734
000170 d4 a6 dc bd cd 6e 56 be 1b 3f c4 bf d9 b0 b5 3c
       -0.107740074 -0.20940705 -1.5331758 0.022179054
000180 2b a1 60 bf 5e 4d 80 bf a3 3b ea 3d 78 36 5a bf
       -0.8774592 -1.002361 0.11437156 -0.8523936
000190 b3 ba 95 bf 7f 72 ca bf db e0 f3 be 28 fb 42 bf
       -1.1697601 -1.5816191 -0.4763249 -0.76164484
0001a0 f7 7d 71 bf b8 2d 20 bf 91 6c 71 bf a5 f9 4f bf
       -0.9433283 -0.6256976 -0.94306284 -0.812403
0001b0 1b c7 60 bf 29 86 9e 3e 52 b0 56 bf 3e 32 42 bf
       -0.8780381 0.3096173 -0.83862793 -0.75857913
0001c0 a2 79 f8 bf 1e fa 46 40 35 22 7c bf fa d9 95 40
       -1.9412119 3.109016 -0.98489696 4.6828585
0001d0 8b 3f 77 40 4a af 98 be db b6 7a bf 36 0d 2f 40
       3.8632534 -0.29821235 -0.97935265 2.7351813
0001e0 ae 33 18 be 72 35 80 bd 2a 24 9b bf 07 d6 63 40
       -0.14863464 -0.06260194 -1.2120411 3.5599382
0001f0 73 d0 ac bc 1c 33 f8 bf 18 db 9f bf b3 42 03 3e
       -0.02109549 -1.9390597 -1.2488737 0.12818412

fc3.bias f4 [4]
000000 86 32 bb 3f a0 56 99 3d 30 0b 72 3f 2c df 83 3f
       1.4624794 0.074872255 0.9454832 1.0302482
