src/models/covid_cnn.pth (torch, 87279 bytes, 14 tensors)

cnn_layers.0.weight f4 [10, 1, 3, 3]
000000 a4 b8 61 bd 69 47 a3 be 36 98 96 3e e4 94 2c be
       -0.055107728 -0.3189042 0.29413003 -0.16853672
000010 82 72 02 bd 42 31 66 ba 9b b8 b5 3d 86 a0 9f be
       -0.031847484 -0.00087811437 0.08873101 -0.31177157
000020 f1 c2 9d be a2 f6 62 bd 42 76 68 bc 45 fc 9e 3c
       -0.3081279 -0.05541099 -0.014188351 0.0194074
000030 d9 9b 8e be 73 74 d0 3c d2 b5 3a 3e f5 15 a0 3e
       -0.27853277 0.025446152 0.18233421 0.31266752
000040 31 f5 a1 bd a4 ee 82 3e 4c d2 64 bd a6 57 2a 3e
       -0.07908095 0.25572693 -0.055864617 0.16634998
000050 d7 f6 ef bc 1e 60 2e be 3c 9b 5c 3d 8a af 47 be
       -0.029292507 -0.17028853 0.05385898 -0.19500557
000060 66 66 58 3e f9 82 85 3e e8 eb ad bd 91 48 90 bd
       0.21132812 0.26076487 -0.08492261 -0.07045091
000070 b8 bd 9d 3e 45 64 a1 3d 6c 40 d8 3d c3 0b 6c 3e
       0.30808806 0.07880453 0.105591625 0.23051362
000080 77 cc 08 3e 7a ba 8c 3e a1 f2 66 be 64 e2 88 3d
       0.13359247 0.2748602 -0.22553493 0.066838056
000090 dc 2c 80 be 2f 57 8e 3e 7d 06 8f bc 90 83 9d be
       -0.25034225 0.2780089 -0.017459149 -0.30764437
0000a0 5b 85 88 3e aa 96 df bd 2f 8b 30 be 6e 57 44 be
       0.26664242 -0.10917409 -0.17240594 -0.19173977
0000b0 14 73 a2 be 0b 0b dc bc e0 e4 32 3e 41 d4 aa 3e
       -0.31728423 -0.026860734 0.17470121 0.33365062
0000c0 e8 69 4d 3e 5c 71 cf ba 2a 0a 94 be 7f 85 25 3d
       0.20059931 -0.001582663 -0.28914005 0.040410515
0000d0 c0 2d 97 3e 15 00 44 3c 5a 41 2e be d2 5b 00 3e
       0.29527092 0.01196291 -0.17017117 0.12535027
0000e0 be c4 b6 bd 62 7c a8 3e c5 05 3a 3e aa bc 92 be
       -0.08924244 0.32907397 0.18166263 -0.28659564
0000f0 79 d0 56 3d 7d 47 05 be dc e6 6e bd 86 48 f5 3d
       0.05244491 -0.13015552 -0.058325633 0.119767234
000100 bf 72 90 be f5 41 a5 be 6d fa c5 3d 06 4d 8e be
       -0.28212544 -0.32276884 0.096669056 -0.2779314
000110 10 8c 89 be 5c 93 da 3d 9c cc 42 bc 0d 93 e5 3d
       -0.26864672 0.10672638 -0.011889603 0.11209688
000120 69 fb 52 bd d3 a7 9b be 43 16 89 bc 25 8c 30 be
       -0.051509295 -0.30401477 -0.016734248 -0.17240961
000130 31 28 31 3e 7d 51 a9 bd 3a 4c 05 3e 34 5d 3b be
       0.17300488 -0.08267496 0.1301736 -0.18297273
000140 59 bb aa bc 82 22 a5 be fc 09 ab bd 3d 57 a7 3e
       -0.020841287 -0.3225289 -0.08351514 0.32683745
000150 ad d8 72 b9 55 8f 42 3e 95 4a b1 bd f8 b2 eb 3d
       -0.00023159636 0.1899999 -0.086568035 0.11508745
000160 84 54 80 3e 62 f2 98 bc
       0.2506448 -0.018670265

cnn_layers.0.bias f4 [10]
000000 c4 4c 70 bd 11 c3 2f 3c 3c 91 f8 3d 9f 25 07 be
       -0.05866696 0.01072766 0.12137076 -0.13197945
000010 98 7e 1c be 67 ce 7d bd 7e 91 13 3e 0b 99 64 3d
       -0.15282667 -0.06196442 0.1441097 0.055810016
000020 32 9b 0f be 53 de 5e 3e
       -0.14024046 0.21764497

cnn_layers.1.weight f4 [10]
000000 84 1f 80 3f a0 85 7f 3f 2a 64 7f 3f 49 ae 7f 3f
       1.0009618 0.9981327 0.99762213 0.99875313
000010 4a 1f 80 3f 0b 31 80 3f 11 0a 80 3f 01 e4 7f 3f
       1.0009549 1.0014967 1.0003072 0.9995728
000020 cb 34 80 3f 9b 6f 7f 3f
       1.0016111 0.9977967

cnn_layers.1.bias f4 [10]
000000 90 50 30 3a 38 ff 2c bb 64 9b 15 bb 91 c6 30 bb
       0.0006725872 -0.002639724 -0.0022828216 -0.0026973824
000010 85 5a 0e 3a 44 f4 f9 ba 67 05 0e ba 2e 98 2d 3a
       0.00054303586 -0.0019069989 -0.0005417675 0.0006622103
000020 53 06 c3 3a cc 71 21 bb
       0.0014879204 -0.0024634479

cnn_layers.1.running_mean f4 [10]
000000 93 aa 77 bd 99 3e 3e 3c c5 06 f9 3d 6a d2 04 be
       -0.060465407 0.011611604 0.12159494 -0.12970892
000010 1a 78 1e be 99 38 76 bd e1 7d 13 3e e4 a2 5d 3d
       -0.15475503 -0.06011257 0.14403488 0.054110423
000020 92 ac 10 be bd 90 5f 3e
       -0.1412833 0.21832557

cnn_layers.1.running_var f4 [10]
000000 0e 9e 7a 3a 4c 69 7a 3a 62 5d 7a 3a c1 ac 7a 3a
       0.0009560295 0.00095524336 0.0009550658 0.00095624855
000010 bd 9f 7a 3a a7 91 7a 3a d8 5b 7a 3a 03 95 7a 3a
       0.0009560546 0.0009558447 0.0009550429 0.00095589476
000020 05 76 7a 3a d7 69 7a 3a
       0.00095543294 0.00095525145

cnn_layers.4.weight f4 [4, 10, 3, 3]
000000 b9 c2 5a 3d d9 d3 bd 3d a6 43 df 3c c3 d2 40 3c
       0.05340836 0.09268922 0.027253937 0.0117689995
000010 a3 94 9c 3d a1 8b 8d bc 6b 6b 9a 3d 8b f7 36 3c
       0.07645538 -0.017278494 0.075400196 0.011167417
000020 66 a1 42 3b 54 f7 cf bc c7 3e 9c 3d 68 8a 93 bc
       0.0029698252 -0.02538649 0.07629161 -0.018010333
000030 7b 94 88 3d 16 af b4 bd 85 8c 19 3d ed 54 c6 3d
       0.066689454 -0.088224575 0.037487525 0.09684167
000040 c8 3e 69 bd 4b 39 67 bc 46 ce 55 bd 96 ca 66 bc
       -0.05694464 -0.014112781 -0.05219867 -0.014086386
000050 da 93 b7 bd 91 d5 5e bd 19 c1 4f 3d 10 e0 7f 3d
       -0.08963747 -0.05440289 0.05072126 0.062469542
000060 06 d0 d4 bc 4c 73 a3 bd 18 1b 07 3c 41 89 72 3d
       -0.0259781 -0.079809755 0.008246206 0.059212927
000070 88 f2 48 3d 7b ac c7 bd b5 b9 4e 3d 59 de 58 bd
       0.04905942 -0.09749695 0.050470073 -0.052946422
000080 a2 43 d7 bd 29 8f 4b 3d 38 f9 f7 bc 36 b5 cc 3d
       -0.10510947 0.049697075 -0.030270204 0.09995501
000090 98 34 61 3d 62 cd c4 bd b9 26 80 bd 58 bf 67 3d
       0.054981798 -0.09609486 -0.06257386 0.056578964
0000a0 9b 91 a7 bd 95 83 56 bd e8 43 9b bd 14 69 b9 bb
       -0.08182069 -0.05237158 -0.075813115 -0.0056582782
0000b0 c4 54 d1 bc 07 4f 31 bd b2 92 98 bd c5 1e 69 bb
       -0.025553115 -0.043288257 -0.07449855 -0.0035571319
0000c0 7a 0a 61 bd 52 ec 1b 3b 25 48 d2 3d f5 03 ec 3c
       -0.05494163 0.002379198 0.10267667 0.02881048
0000d0 26 9b 6b 3c 29 61 95 3c c5 37 0c bd 8b db ca bd
       0.014380252 0.018234806 -0.034232873 -0.09905156
0000e0 60 9e ca bd ca b6 24 3d dc 47 d6 bd 6d ec 80 3c
       -0.09893489 0.040213384 -0.10462925 0.015737737
0000f0 45 7b 30 bd cc f4 77 3d 0a 82 64 bd d4 84 cc 3d
       -0.04308631 0.06053619 -0.055788077 0.099862725
000100 49 1b f7 3c 37 b0 ce 3d c7 06 f7 bc 1a 09 91 3d
       0.030164378 0.10092204 -0.030154599 0.07081814
000110 e5 00 98 bd 60 3f be bd 60 3a 8f 3d a9 2b c5 3b
       -0.074220456 -0.092894316 0.06993556 0.0060171676
000120 bd 6e bf bc c0 da 83 bd 5a 55 46 3d a9 e0 14 3d
       -0.023368234 -0.064382076 0.04842124 0.036347065
000130 5f 3c fc 39 8b 42 1d bd 58 fc b5 3d e8 69 a6 3d
       0.00048110166 -0.03839354 0.088860214 0.08125669
000140 20 7c 89 bd b9 5c 56 3d 1d 3a c4 3c f8 46 8d 3d
       -0.06713128 0.05233452 0.023953492 0.06898302
000150 87 f6 b7 bc 59 12 90 bc 3c 93 fc 3c 4f 96 2f 3d
       -0.02245642 -0.017586874 0.030831926 0.042867955
000160 42 b8 b2 3d 03 d9 57 bd 73 03 ad bd e4 9b 10 3d
       0.08726551 -0.052697193 -0.084479235 0.03530492
000170 ce a6 39 bc 04 84 4d 3d 54 5d 6b bc 44 29 c6 bd
       -0.011331273 0.050174728 -0.014365513 -0.096758395
000180 0a 73 f5 bc f1 b3 74 3d ba 32 5f 3d 03 65 ad 3d
       -0.029962081 0.059741918 0.054491736 0.08466532
000190 48 43 c8 3d a4 a2 a1 3d 3b 6a 82 bd b9 a4 43 bc
       0.09778458 0.07892349 -0.06367918 -0.011941128
0001a0 91 e6 bc bd 5f af 6b 3d 73 bc 13 bc e0 bd 87 bb
       -0.092236646 0.057540294 -0.009017098 -0.004142508
0001b0 b8 37 c3 3d 10 2a 60 bd 64 aa 81 3d e3 6c a2 bb
       0.09532112 -0.054727614 0.063313276 -0.004956828
0001c0 5e 42 2c 3d 7c 1e b9 3c a3 aa 51 bd 63 f5 cf bd
       0.04205548 0.022597544 -0.051188122 -0.10154226
0001d0 98 f7 6b bd 20 ad 8a bd 5c 13 3d 3d 67 df ca bc
       -0.05760917 -0.06771302 0.04616104 -0.02476473
0001e0 5a 28 d6 3d 00 59 a5 3c 74 a0 c7 3d 3b 13 b8 3d
       0.10456915 0.02018404 0.09747401 0.08988043
0001f0 e3 7d 36 bd b5 a0 a2 3d 6c 9b 76 bd ba 67 00 bd
       -0.04455365 0.07940809 -0.060206816 -0.03134892
000200 16 a6 55 bd 0d 91 64 bd ac 40 82 3d d6 6b 05 bd
       -0.052160345 -0.055802394 0.063599914 -0.032573543
000210 e5 77 96 3d 77 35 47 3d f8 82 b8 bd f2 08 b0 3d
       0.07347087 0.048634972 -0.09009355 0.08595456
000220 8d 6e 03 3b 8c 8e c3 bd b7 ad 56 bd 2e 06 92 b7
       0.0020054907 -0.09548673 -0.05241176 -1.7407434e-05
000230 9f a7 ad bc c0 50 a8 bd e2 61 96 3d 92 4c a3 3d
       -0.021198092 -0.08218527 0.073428884 0.07973589
000240 79 2e b0 bd 2f 88 dd bb a0 70 ca 3d ef 62 bb bd
       -0.08602614 -0.006760619 0.09884763 -0.091497295
000250 b5 a2 db bc b7 0b 8a bd f5 ad 0b bd 35 b3 a3 bd
       -0.026810983 -0.06740516 -0.034101445 -0.079931654
000260 62 6e 26 3c 49 1a aa 3d 69 23 d5 3d 39 6f 4b bc
       0.010158153 0.08305795 0.104071446 -0.012416654
000270 a4 c7 cd bd 0a 57 70 bc 2d 2c 20 bd 87 2e b3 bb
       -0.10047844 -0.014669189 -0.03910463 -0.005468193
000280 4f 5c 8e bd eb ec 57 3d 6f ec ce bc 8c db 43 bd
       -0.069512 0.052716177 -0.025259225 -0.047816798
000290 6b 31 a6 3c 19 60 6c 3c 4a 34 bc 3a 31 36 0f 3d
       0.020287236 0.014427208 0.0014358845 0.03496379
0002a0 eb 9c f6 3c 70 09 18 bd ff 4b 4e 3c a4 9c b1 bd
       0.030104121 -0.037118375 0.012591361 -0.08672455
0002b0 f3 2c 36 3d 63 22 38 bc af c3 4d 3d fe 22 2d bb
       0.04447646 -0.011238667 0.050235447 -0.0026418562
0002c0 27 ef 94 bc 79 59 ba 3d 0a a9 4b bc 32 ec ed bc
       -0.018180443 0.09099097 -0.012430439 -0.02904329
0002d0 90 f8 2b b9 cc 80 5a 3d a4 dd 70 bd 52 2b 4b bd
       -0.00016400428 0.053345487 -0.058805123 -0.04960186
0002e0 80 5a 92 3c 97 9e 9b 3d e0 74 79 3d 85 8d 91 3d
       0.01786542 0.07598608 0.060902476 0.07107071
0002f0 f9 03 35 3d 1a 58 f8 3c df e2 9f 3d ff a2 a4 3c
       0.04419324 0.030315448 0.07806944 0.020097254
000300 a1 ed cb 3b 9b 9c 7a bd 00 c4 50 bb 2f 6b 8c bd
       0.006223396 -0.061184507 -0.0031855106 -0.06856381
000310 42 7c 98 bc a8 f6 8e 3d 7c 25 92 3d bf d4 d2 3d
       -0.018613938 0.0698064 0.07136056 0.10294484
000320 30 59 4f 3b 38 b9 a5 3d 5a 8b b7 3d 6e 3b 22 3a
       0.0031638853 0.08091968 0.08962126 0.0006188665
000330 30 0a 14 3d b4 45 ae 3d e0 1c a2 3d de f1 3a bd
       0.036142528 0.085093886 0.07915664 -0.04564082
000340 86 a5 29 3d e7 3e 55 3c dd 28 a9 bc 08 08 fc 3c
       0.04141762 0.013015485 -0.020649368 0.030765548
000350 b7 9a ed 3c e8 03 86 bc 7e 33 81 bd d3 a5 d1 3d
       0.029004438 -0.016359285 -0.063086495 0.102367066
000360 9b c9 7a bd 36 f4 ba 3d c9 55 cb bd 2e 54 b7 3d
       -0.061227422 0.09128611 -0.099284716 0.08951603
000370 a0 41 ab bd 49 52 bc 3d 01 a7 aa 3c 49 bc 86 bd
       -0.08362126 0.09195382 0.020831587 -0.06578881
000380 71 0a 5e 3d 9e 6a 9a 3d f4 49 6e 3d 2d 18 66 3d
       0.054209176 0.07539867 0.058175996 0.0561754
000390 84 bd a0 bc 0b c4 a3 3d 7d 2f 15 bd 56 c7 99 3d
       -0.019621618 0.079963766 -0.03642224 0.075087234
0003a0 d5 f4 8d 3c b1 47 80 3d a4 bf a1 3c 0e 6a 5b bc
       0.01732866 0.06263674 0.019744702 -0.013391985
0003b0 a8 48 be 3d 11 00 59 3c 97 98 ca bd 96 32 ab bd
       0.09291202 0.013244645 -0.098923855 -0.08359258
0003c0 f6 e1 6c 3d 3e aa bf 3d c1 ee 9e 3d 83 e9 c8 bc
       0.05783268 0.09358643 0.077603824 -0.02452541
0003d0 e5 bc a2 3d a1 d7 7b bd 04 c1 d3 bc f0 f4 7f 3d
       0.07946185 -0.061484937 -0.025848873 0.06248945
0003e0 13 9c 98 bb ef 84 44 bd 2f 3a 99 bd e3 10 75 3d
       -0.0046572774 -0.047978338 -0.07481801 0.059830558
0003f0 11 4a ba 3d 88 ef 09 3c 5a 2a 8b bb 13 41 c3 bd
       0.09096158 0.008418925 -0.004246992 -0.09533896

cnn_layers.4.bias f4 [4]
000000 9e 48 64 3c 06 11 d7 3d 0b f7 29 bd 55 c0 06 bd
       0.013933329 0.10501294 -0.041495364 -0.032898266

cnn_layers.5.weight f4 [4]
000000 2b 09 80 3f 35 3d 80 3f be 06 80 3f f8 2f 80 3f
       1.0002798 1.0018679 1.0002058 1.0014639

cnn_layers.5.bias f4 [4]
000000 82 31 4d ba 30 c8 9a ba 79 9b 00 bb e3 dd ba 3a
       -0.00078275066 -0.0011808928 -0.001962392 0.0014256801

cnn_layers.5.running_mean f4 [4]
000000 a4 d6 7a 3d ad 7f 02 3e 66 66 ec 3d d1 26 08 be
       0.061239854 0.12744017 0.115429685 -0.13296057

cnn_layers.5.running_var f4 [4]
000000 6d 88 35 3b cc ce 21 3c 19 74 1a 3c 46 28 4a 3b
       0.0027699724 0.009875964 0.009427094 0.0030846759

linear_layers.0.weight f4 [2, 10000]
000000 b1 92 07 bc 28 63 81 bb 98 81 77 bb 0d f7 61 bb
       -0.00827472 -0.003948588 -0.0037766453 -0.003447953
000010 cd 72 f3 3a 52 4e 03 bc 59 70 07 3c 18 33 a8 bb
       0.0018573642 -0.0080142785 0.008266532 -0.005133044
000020 fe 91 36 3c 1a 50 a2 bb 9a 7b 04 3b ec f1 2c 39
       0.011143206 -0.0049533965 0.0020215274 0.00016493321
000030 8e 42 00 3c 2f a6 5f 3b b4 bf 09 bc 1c 1e f6 3b
       0.007828368 0.0034126153 -0.008407522 0.0075109135
000040 2c f7 aa 3b ad 23 41 bb 14 5f 7b 3b cc fc 73 3a
       0.0052174535 -0.0029470727 0.0038356232 0.0009307384
000050 bf 45 9e 3b 66 47 0b bc a1 27 aa 3b 33 3e 42 ba
       0.0048300917 -0.008500909 0.0051927124 -0.0007409781
000060 fe aa 8e bb 98 c2 a6 bb 58 5d c4 3b c6 df 86 bb
       -0.00435388 -0.0050891154 0.0059925728 -0.0041160313
000070 42 d9 7c 3a 63 50 02 bc c5 9c ad 3b 68 10 27 3c
       0.0009645411 -0.007953736 0.0052982294 0.010196783
000080 78 62 78 3b 50 31 98 bb 4a 9b 96 b8 af 79 df b9
       0.0037900489 -0.0046445504 -7.181482e-05 -0.00042624536
000090 ba 7d 93 3b a6 ba 16 3c dd 18 ca 3b 28 24 99 bb
       0.0045010718 0.009199774 0.0061675147 -0.0046734996
0000a0 04 ff 3a bb a2 d3 d3 3b d3 60 82 ba 12 d2 c6 3b
       -0.0028533349 0.0064644376 -0.0009947069 0.006067523
0000b0 a3 c5 a5 3b 64 af b5 bb 59 02 fd ba ba 47 17 bb
       0.0050589605 -0.00554459 -0.0019303068 -0.0023083524
0000c0 0d 88 25 3b 3b 2b d9 3b c8 23 01 3c fc 82 00 bc
       0.0025258095 0.006627468 0.007882066 -0.007843729
0000d0 bf c4 90 3b 63 a8 2c 3c 8a b4 e7 3b fd 1d f2 3b
       0.004417985 0.010538193 0.0070710825 0.007388829
0000e0 ab 25 4f 3b 3a e3 eb bb cd e8 28 3b ea c4 c9 bb
       0.0031608145 -0.0071987184 0.0025773526 -0.006157507
0000f0 a9 44 09 bc 30 2e e1 3b 32 ef 2c 3c c3 1a 30 3c
       -0.008378186 0.006871961 0.0105550755 0.010748568
000100 4a 9f 0a 3b 37 ca 25 3c 1b 02 b9 3b b8 76 86 bb
       0.0021152073 0.010119013 0.005646003 -0.004103508
000110 8a c3 03 bb 49 ce b2 3a d5 8e 45 bb c7 e0 e1 ba
       -0.0020105564 0.00136418 -0.003014495 -0.0017233127
000120 df 4d 92 bb 73 41 c3 bb ac b8 d1 bb 78 4b bc bb
       -0.0044648494 -0.00595873 -0.0064001884 -0.0057463013
000130 16 ee 00 3a ed fb c9 3a b6 52 5a ba 26 55 e5 3b
       0.000491829 0.0015410163 -0.0008328365 0.006998676
000140 ad fe 68 bb 44 87 06 bc 9b 4a 1f 3c 8b dd ff bb
       -0.003555219 -0.008210961 0.009722377 -0.0078083924
000150 2c f6 22 3c 0d e4 2d 3c c2 52 ee 3b 0b ec 3c 3b
       0.009946387 0.010613454 0.007273049 0.0028827216
000160 51 fa 30 3c 7b f0 e4 3b 1b a0 be b9 d4 af b1 ba
       0.010801868 0.0069866753 -0.00036358912 -0.0013556429
000170 b5 7a 6c bb dc eb 16 bb 50 80 f4 bb 41 79 cf 3b
       -0.0036083881 -0.0023028767 -0.007461585 0.0063315933
000180 24 2d 57 ba 60 36 e0 3b 4e 29 c4 3b a2 ff b6 3a
       -0.00082083256 0.0068424195 0.005986369 0.0013961683
000190 58 b0 da bb 81 5f d8 3b 1a 84 15 bb be 9d 0d bb
       -0.006673854 0.006603182 -0.0022814334 -0.0021608914
0001a0 1e 1e 3e 3c 8c 1a 7d 3b d6 93 e6 3b 6d 3a f2 3b
       0.01160386 0.003862056 0.0070366664 0.007392219
0001b0 fa 3d 8f 3b 03 30 26 bb aa ec a0 bb 68 f1 41 3a
       0.004371402 -0.0025358207 -0.004911025 0.0007398338
0001c0 5f 10 e5 3b c7 93 af 39 db 47 14 bb 6a c0 b6 bb
       0.006990477 0.00033488704 -0.0022625837 -0.0055771368
0001d0 b0 6d 96 bb 35 5a b8 ba 17 e1 48 bb 2e bb fd bb
       -0.0045907125 -0.001406497 -0.0030651742 -0.007743261
0001e0 f6 17 b8 ba d1 55 63 3b e5 10 f6 3b 24 2c 44 bb
       -0.0014045227 0.0034688602 0.007509338 -0.0029933536
0001f0 26 ed e8 b9 96 a5 5e ba 2c 3b 08 bb 14 e3 99 bb
       -0.00044427178 -0.0008493302 -0.0020787222 -0.0046962593
000200 55 8c a6 ba 5a 5d ce 3b 45 19 05 bb 33 7f ec bb
       -0.0012706617 0.0062977495 -0.0020309251 -0.0072173118
000210 24 0a 95 b6 e5 71 88 3b ed 9d 37 bb 92 52 a3 ba
       -4.4417266e-06 0.004163968 -0.0028017715 -0.0012460521
000220 d0 4e 83 3b b5 15 08 bc cf 4b 95 3b d1 e8 81 bb
       0.004007198 -0.008305957 0.004556156 -0.0039645215
000230 b4 dd a4 b9 19 42 de bb 8f 45 2b b9 26 f2 ba 3b
       -0.000314457 -0.006782782 -0.00016333743 0.005705136
000240 74 a6 9d 3a 8e 28 8f 3b 80 1f 9f 3b c9 f9 b4 3b
       0.0012027756 0.004368848 0.00485605 0.005522941
000250 23 52 41 bb c2 c8 ef ba 38 98 32 3c dc 8b 13 bb
       -0.002949842 -0.0018294083 0.01090055 -0.0022513783
000260 77 f7 db 3b f4 02 fa 3a 7a 0b 2c 3c bc 93 fe ba
       0.0067128497 0.0019074366 0.010500783 -0.001942269
000270 9e cf 8f 3a 0a aa fc bb 2e 72 8e 3b b1 fd 1a 3b
       0.0010971909 -0.0077107 0.0043471074 0.0023649747
000280 d0 61 c5 3b 3d c8 51 bb 7b 0a e6 b8 2e e0 7b bb
       0.006023623 -0.003201022 -0.00010969207 -0.0038433182
000290 ff 87 78 bb e2 5a a1 3b 00 1b 63 bb c3 2e ae 3b
       -0.0037922857 0.004924164 -0.0034653544 0.005315633
0002a0 25 5c 64 b9 e2 ff b1 bb 42 bd 06 3a 4c 52 31 b9
       -0.00021778101 -0.005432115 0.0005139896 -0.00016910693
0002b0 4e 49 16 bc 25 31 39 bc 46 94 52 bb 9a bb 02 3c
       -0.009172751 -0.011303221 -0.0032131835 0.007979298
0002c0 6a 5c d6 bb a9 2f 15 3b 91 7f 11 3c ac 69 07 3b
       -0.0065417783 0.0022764003 0.008880512 0.002066235
0002d0 0f af 88 bb 50 09 f0 3b 53 27 4e 3b 7d 2e 81 3b
       -0.0041712592 0.007325329 0.0031456545 0.0039423094
0002e0 8a 38 19 bc 93 0e d4 bb cf d3 8c 3a 28 c9 f6 bb
       -0.009351859 -0.006471464 0.0010744276 -0.007531304
0002f0 a0 09 55 bb 7e ff 60 bb 57 0f 36 3b 40 75 2c 3a
       -0.0032506958 -0.0034331973 0.002778014 0.0006578751
000300 2e 0f b8 bb 82 5b 61 ba 3c f0 46 bb 0f ec 7e 3a
       -0.005617044 -0.00085967046 -0.0030355593 0.00097245065
000310 66 77 af bb 2d f8 8a bb 2a dd f7 bb bb 4e d3 bb
       -0.0053548096 -0.0042410106 -0.0075642066 -0.0064485944
000320 c0 ef bf bb 32 db df 3b 45 35 e0 bb c7 c0 e5 3a
       -0.005857438 0.00683155 -0.0068422877 0.0017528766
000330 2f 4c 01 3c 27 90 8e 3b 50 29 e3 ba a5 0b 94 bb
       0.007891699 0.0043506804 -0.0017331038 -0.0045179897
000340 82 8c 0d 3b de f5 ce bb eb 97 b3 3b 1c 1e 92 3a
       0.0021598642 -0.0063159307 0.0054807565 0.0011147889
000350 a7 62 09 3c f9 53 ba bb 8a bc 9a 3a 3f e7 af bb
       0.008385337 -0.00568628 0.0011805457 -0.005368143
000360 30 5a db 3b 7b cd 3d bc da 63 5d bb bb 51 d6 bb
       0.006694101 -0.011584635 -0.003378144 -0.0065405047
000370 10 c8 eb ba f9 5d 51 3b dd c2 5e 3b b8 e4 0c bc
       -0.00179887 0.0031946881 0.003399066 -0.008599453
000380 a6 63 b8 bb 09 6b 02 3b 5b 7b 00 3a 27 d6 04 3c
       -0.0056271134 0.0019900224 0.0004901194 0.0081076985
000390 cb e1 e7 bb b1 0a aa 3b 81 3e 13 ba ab c2 1b bc
       -0.007076477 0.005189263 -0.0005616919 -0.009506862
0003a0 74 78 dc bb 87 7c 15 bb 44 de 93 3b 3d 03 1f 3a
       -0.0067282263 -0.002280982 0.00451258 0.0006065851
0003b0 cc 85 f2 3b 9d a8 f2 3a e8 15 eb ba b0 cb cf 3a
       0.0074012037 0.0018513385 -0.0017935606 0.001585355
0003c0 b0 9b 14 3c 45 d6 74 3b af 1f 95 3b 68 c0 a9 bb
       0.009070322 0.003735916 0.004550896 -0.0051804073
0003d0 5a 64 f4 3a 66 42 05 3c d9 06 32 3c b5 e7 db bb
       0.001864563 0.008133506 0.01086589 -0.0067109712
0003e0 63 c5 0f bc fc 6a 83 bb ec 29 bc bb 61 1c 01 bc
       -0.008775088 -0.0040105563 -0.005742302 -0.007880301
0003f0 42 94 0c 3c fb e8 f7 bb 4f b4 ab 3b 9e c1 87 3b
       0.008580269 -0.0075656152 0.0052400003 0.004142954

linear_layers.0.bias f4 [2]
000000 16 75 23 3c 1f 8a 97 3b
       0.009976646 0.0046246196
