src/models/covid_cnn.pth (torch, 87375 bytes, 14 tensors)

cnn_layers.0.weight f4 [10, 1, 3, 3]
0.25603473 -0.30639207 -0.14441258 0.13318631 0.18382066 -0.056308538 -0.23794325 0.24619924
-0.28523666 -0.080359444 -0.22747898 -0.17315988 0.056836408 0.3082656 -0.3029777 0.02817151
0.081697255 -0.07430128 -0.071326084 0.2404837 0.3265756 -0.31950113 -0.09299936 -0.010845938
-0.11497106 0.0725326 -0.01671832 0.29320025 -0.06345048 -0.10896572 -0.099594206 -0.15599613
0.09930919 -0.13163799 -0.25680265 -0.03324051 0.20112307 0.06357941 0.32864156 -0.18049665
0.13428915 -0.13831136 -0.30202773 0.033748355 -0.19851176 -0.25613606 0.111776195 0.12341207
0.1307391 -0.17966636 0.25051317 -0.04282223 -0.10679572 0.048022203 -0.12500097 0.17986889
0.24045587 0.3083762 0.12804492 -0.06549922 -0.1911785 0.3071812 0.31506145 -0.15744807
0.2936676 0.2324717 -0.1669089 0.14125319 -0.18125749 -0.12062209 0.23035432 0.14044319
0.29424524 -0.11756321 -0.20620781 0.026267258 -0.2182858 -0.20296349 -0.24666134 -0.079676494
0.33318377 0.31361532 0.028444014 -0.3311692 0.03609055 0.030688133 0.24016742 0.10974137
-0.24359074 -0.12584904
00000000: fc16 833e 6cdf 9cbe e4e0 13be fe61 083e
00000010: 7c3b 3c3e c8a3 66bd 65a7 73be a71b 7c3e
00000020: 8a0a 92be 7e93 a4bd 40f0 68be d350 31be
00000030: 4bcd 683d fdd4 9d3e e51f 9bbe f0c7 e63c
00000040: e450 a73d 452b 98bd 6913 92bd 5c41 763e
00000050: eb34 a73e a795 a3be 7376 bebd 29b3 31bc
00000060: f275 ebbd f98b 943d dcf4 88bc 581e 963e
00000070: 53f2 81bd 6b29 dfbd 0cf8 cbbd 73bd 1fbe
00000080: 9e62 cb3d 1ccc 06be a37b 83be 3327 08bd
00000090: 35f3 4d3e ec35 823d b543 a83e 1dd4 38be
000000a0: 1883 093e 7ea1 0dbe 61a3 9abe b73b 0a3d
000000b0: ab46 4bbe 4424 83be ebea e43d 78bf fc3d
000000c0: 78e0 053e 75fa 37be 4343 803e 5d66 2fbd
000000d0: b7b7 dabd eeb2 443d 4100 00be 8d2f 383e
000000e0: 103a 763e 7ce3 9d3e 351e 033e 7424 86bd
000000f0: 4cc4 43be db46 9d3e bc4f a13e 113a 21be
00000100: 9a5b 963e 100d 6e3e 2bea 2abe ada4 103e
00000110: 909b 39be b708 f7bd 01e2 6b3e 57d0 0f3e
00000120: 50a7 963e fbc4 f0bd 2428 53be 6f2e d73c
00000130: 5086 5fbe a9d5 4fbe ca94 7cbe 6e2d a3bd
00000140: 1097 aa3e 3092 a03e 6c03 e93c 028f a9be
00000150: afd3 133d ae65 fb3c 73ee 753e 15c0 e03d
00000160: da6f 79be 92de 00be

cnn_layers.0.bias f4 [10]
0.06561283 -0.04604037 -0.31251976 -0.07700654 0.11862114 -0.15479125 -0.26006645 0.013479231
-0.05543219 -0.12248113
00000000: 0560 863d d494 3cbd 9702 a0be 9bb5 9dbd
00000010: a4ef f23d 9981 1ebe 6e27 85be fed7 5c3c
00000020: dd0c 63bd 63d7 fabd

cnn_layers.1.weight f4 [10]
0.9985161 0.99999285 0.99891746 1.002287 0.99745744 0.99840903 1.001155 1.0003102
0.9982892 1.0011821
00000000: c09e 7f3f 88ff 7f3f 0eb9 7f3f f14a 803f
00000010: 5f59 7f3f bc97 7f3f d925 803f 2a0a 803f
00000020: e28f 7f3f bc26 803f

cnn_layers.1.bias f4 [10]
-0.0017229705 -0.001412877 0.0006834876 0.0011735919 0.0003748007 -0.00073584437 -0.0029789112 0.0019712697
-0.0011508194 -0.0015907014
00000000: 4cd5 e1ba 4930 b9ba 142c 333a 36d3 993a
00000010: e680 c439 aee5 40ba d639 43bb 6b30 013b
00000020: 17d7 96ba 157f d0ba

cnn_layers.1.running_mean f4 [10]
0.06495859 -0.046605576 -0.3120978 -0.0778574 0.118672475 -0.15423512 -0.25698483 0.014059132
-0.056529798 -0.12196263
00000000: 0209 853d 7de5 3ebd 48cb 9fbe b373 9fbd
00000010: 8e0a f33d d0ef 1dbe 8493 83be 4658 663c
00000020: ca8b 67bd 8bc7 f9bd

cnn_layers.1.running_var f4 [10]
0.0013101224 0.0013102752 0.0013100867 0.0013103598 0.0013100891 0.0013100574 0.001311871 0.0013103185
0.0013103171 0.0013100643
00000000: 6ab8 ab3a 8abd ab3a 37b7 ab3a 61c0 ab3a
00000010: 4cb7 ab3a 3bb6 ab3a 16f3 ab3a febe ab3a
00000020: f2be ab3a 77b6 ab3a

cnn_layers.4.weight f4 [4, 10, 3, 3]
-0.008354322 -0.0020308695 -0.06203498 -0.0151804425 -0.016671617 0.06913952 0.01331862 -0.05875913
0.081064045 -0.029999213 -0.055246104 0.011189616 0.020646457 0.0356725 -0.027998831 0.04515638
-0.004514051 -0.01896486 0.03087084 -0.051842246 -0.058914278 0.028340204 0.052388508 -0.06591218
-0.057119604 -0.051048085 -0.05781614 -0.07016309 -0.010651483 0.07432658 0.07272531 0.043591924
0.024697434 0.015609964 0.061259806 0.10266352 -0.015295668 0.0007606987 -0.009154701 -0.051119532
-0.085235454 0.07358344 -0.022913996 -0.050446603 0.04978845 0.089367196 -0.079043515 -0.088187836
0.04471017 0.0077763437 0.06888435 0.088037916 -0.07953175 0.04503844 -0.03138113 -0.0015173894
0.104352 0.06090856 -0.011230483 0.09955643 0.029689917 -0.07077095 -0.067573056 -0.06065797
0.046231046 0.035274316 -0.09626713 0.02592548 0.09985045 -0.079366855 0.038224556 -0.06678679
-0.099967904 -0.10424375 0.08303512 -0.020043025 -0.019196892 0.0951869 -0.015517857 -0.097417094
-0.05306703 -0.018778183 0.058972258 0.0755421 -0.05361761 -0.006817631 0.05835221 0.019726478
0.034874152 0.013358177 -0.003501092 -0.031812202 0.07711392 0.08723501 0.048621193 0.03863959
-0.08141305 0.0060418635 -0.037683647 -0.105717905 0.0035703774 -0.039885513 0.048183344 -0.015847828
0.0981374 -0.08462126 -0.08746845 -0.075158894 -0.04829746 -0.08883665 0.054811716 0.08245266
-0.0031357487 -0.0117673455 0.055962387 0.0282365 0.017441805 0.08546819 0.08105718 -0.03181017
0.014113347 -0.07396517 -0.0035391033 0.05319772 0.08477608 0.003130158 -0.010973774 0.0918252
0.07145819 -0.027493553 0.090530135 0.027264336 0.055751786 0.071757615 -0.0426817 0.058139782
0.037828054 0.07979582 0.070087485 -0.0005642114 0.07913741 -0.0933419 0.08867163 0.05085269
0.0671474 -0.06653271 -0.052034922 -0.027864762 -0.0856115 0.10052052 -0.013647616 -0.022847129
0.017950986 0.034906037 -0.08373231 0.08382085 0.09748765 0.008323392 -0.085836574 0.09697999
-0.07459043 -0.03901608 0.015819138 0.028056478 -0.036889423 -0.013215328 -0.094210014 -0.009844969
-0.015265287 -0.09381528 -0.07676935 0.033252984 -0.0037617157 0.06180279 -0.07250034 0.008508727
-0.06259802 -0.07443062 -0.045785297 -0.07275323 0.06631129 -0.026871251 0.08567558 0.03350304
-0.02286757 -0.08795644 0.0059925644 -0.094256274 0.06572205 0.06960524 -0.057671327 0.024303647
-0.03951972 0.0072834357 0.01171464 0.009281184 -0.07732731 -0.015515012 0.015424724 0.10655987
-0.07730794 -0.0975744 0.08318104 0.04652411 0.027327737 0.0254351 0.10036619 0.016607676
0.058299664 -0.057950728 -0.08271967 -0.008035593 3.7581627e-05 0.08871967 0.037180647 -0.041094445
0.05526788 0.09726797 0.0078247525 -0.03647703 -0.029381873 0.08202839 -0.100387976 -0.039666183
-0.09093479 -0.06568997 -0.0038332124 -0.048630826 -0.10501667 0.046617776 0.020969553 -0.07549489
0.045496147 0.074045286 -0.0985532 -0.08948367 0.038785342 0.06931511 -0.0034038443 -0.0030338583
-0.07668956 0.094071515 -0.08274104 -0.08090448 0.015013387 0.09266998 -0.104460694 -0.09247183
-0.028599402 -0.082945876 -0.038337067 -0.04109551 -0.047208 0.058436908 0.09274388 0.04891297
00000000: 91e0 08bc 5618 05bb 6418 7ebd 64b7 78bc
00000010: ea92 88bc 0599 8d3d 5736 5a3c 6aad 70bd
00000020: e804 a63d e9c0 f5bc bd49 62bd a754 373c
00000030: c222 a93c 541d 123d ce5d e5bc e5f5 383d
00000040: 9bea 93bb 325c 9bbc d8e4 fc3c 8958 54bd
00000050: 1950 71bd b729 e83c 5595 563d f7fc 86bd
00000060: 3ff6 69bd cc17 51bd 9ed0 6cbd abb1 8fbd
00000070: 8f83 2ebc 8938 983d 02f1 943d 728d 323d
00000080: 4652 ca3c efc0 7f3c 90eb 7a3d 4041 d23d
00000090: ae9a 7abc a069 473a 99fd 15bc b762 51bd
000000a0: ed8f aebd eab2 963d 22b6 bbbc 19a1 4ebd
000000b0: f9ee 4b3d 2606 b73d 91e1 a1bd d39b b4bd
000000c0: 0322 373d b3d0 fe3b 3d13 8d3d 394d b43d
000000d0: 8be1 a2bd 3a7a 383d 8089 00bd 24e3 c6ba
000000e0: 80b6 d53d 417b 793d 0f00 38bc 3ee4 cb3d
000000f0: 4538 f33c 5cf0 90bd be63 8abd 7e74 78bd
00000100: c45c 3d3d cd7b 103d b327 c5bd ac61 d43c
00000110: 657e cc3d 178b a2bd 5a91 1c3d 83c7 88bd
00000120: f9bb ccbd bf7d d5bd 510e aa3d 4531 a4bc
00000130: cd42 9dbc 59f1 c23d 9c3e 7ebc 9d82 c7bd
00000140: d05c 59bd b4d4 99bc e58c 713d d1b5 9a3d
00000150: 249e 5bbd 6f66 dfbb ba02 6f3d 6c99 a13c
00000160: 33d8 0e3d 41dc 5a3c 9472 65bb 834d 02bd
00000170: e7ed 9d3d 45a8 b23d 0427 473d 8c44 1e3d
00000180: e3bb a6bd d3fa c53b 2b5a 1abd a182 d8bd
00000190: fefc 693b fe5e 23bd e65b 453d 4ed3 81bc
000001a0: 43fc c83d e94d adbd a922 b3bd e8ec 99bd
000001b0: 8fd3 45bd fdef b5bd 4082 603d f1dc a83d
000001c0: 2281 4dbb d3cb 40bc d138 653d 3c50 e73c
000001d0: 1ee2 8e3c f209 af3d 4f01 a63d 614b 02bd
000001e0: ab3b 673c 0d7b 97bd 4df0 67bb dae5 593d
000001f0: 159f ad3d 5623 4d3b 58cb 33bc da0e bc3d
00000200: ac58 923d 293a e1bc dd67 b93d 7559 df3c
00000210: fc5b 643d a8f5 923d 02d3 2ebd fb23 6e3d
00000220: 97f1 1a3d fe6b a33d 078a 8f3d 96e7 13ba
00000230: cb12 a23d 0a2a bfbd 7999 b53d e94a 503d
00000240: 9384 893d 4d42 88bd 9222 55bd a444 e4bc
00000250: 1555 afbd b4dd cd3d 409a 5fbc e729 bbbc
00000260: f20d 933c a2f9 0e3d d87b abbd 44aa ab3d
00000270: 9ba7 c73d d65e 083c 16cb afbd 729d c63d
00000280: dec2 98bd 53cf 1fbd 2397 813c b3d6 e53c
00000290: 5d19 17bd 1a85 58bc 2ef1 c0bd cb4c 21bc
000002a0: 411b 7abc 3a22 c0bd 4039 9dbd 4834 083d
000002b0: 1e87 76bb ec24 7d3d 0f7b 94bd 3068 0b3c
000002c0: 6433 80bd 156f 98bd 5d89 3bbd a5ff 94bd
000002d0: 37ce 873d 1921 dcbc ae76 af3d 7c3a 093d
000002e0: c554 bbbc 8222 b4bd 465d c43b 6f09 c1bd
000002f0: 4899 863d 318d 8e3d c538 6cbd 7118 c73c
00000300: 6edf 21bd e3a9 ee3b c3ee 3f3c 1b10 183c
00000310: c85d 9ebd ad32 7ebc fbb7 7c3c 103c da3d
00000320: a053 9ebd 16d5 c7bd d25a aa3d 1190 3e3d
00000330: 6bde df3c 455d d03c ca8c cd3d d20c 883c
00000340: a1cb 6e3d be5d 6dbd ee68 a9bd b8a7 03bc
00000350: f7a0 1d38 a9b2 b53d bc4a 183d a652 28bd
00000360: 9360 623d 6e34 c73d 6433 003c f068 15bd
00000370: 41b2 f0bc 80fe a73d 3698 cdbd 0279 22bd
00000380: 053c babd 7788 86bd a236 7bbb 1e31 47bd
00000390: fb12 d7bd 48f2 3e3d 57c8 ab3c 119d 9abd
000003a0: 2b5a 3a3d 0ea5 973d 43d6 c9bd 3743 b7bd
000003b0: 61dd 1e3d 15f5 8d3d 0813 5fbb b2d3 46bb
000003c0: 6b0f 9dbd 91a8 c03d 2274 a9bd 3fb1 a5bd
000003d0: b6fa 753c c2c9 bd3d 7def d5bd df61 bdbd
000003e0: 4b49 eabc 87df a9bd 5407 1dbd c453 28bd
000003f0: 2d5d 41bd 8a5b 6f3d 81f0 bd3d f758 483d

cnn_layers.4.bias f4 [4]
0.08835961 -0.05728755 0.060212888 -0.01656724
00000000: e2f5 b43d 5aa6 6abd caa1 763d 05b8 87bc

cnn_layers.5.weight f4 [4]
1.0021523 1.0015604 1.0002922 0.99974036
00000000: 8746 803f 2233 803f 9309 803f fcee 7f3f

cnn_layers.5.bias f4 [4]
0.0010303236 0.0016680306 0.00042025934 -0.0012079398
00000000: ec0b 873a d2a1 da3a 4156 dc39 bc53 9eba

cnn_layers.5.running_mean f4 [4]
0.106957525 -0.071433775 0.042086482 0.028372547
00000000: 8c0c db3d df4b 92bd e062 2c3d 8b6d e83c

cnn_layers.5.running_var f4 [4]
0.0025216972 0.0024885256 0.010890121 0.007687804
00000000: 0f43 253b 8816 233b 7a6c 323c f9e9 fb3b

linear_layers.0.weight f4 [2, 10000]
0.006505908 -0.00070148706 0.007068906 -0.0025457668 0.01041463 0.004556801 -0.007904051 0.007131835
-0.003972147 0.0031677668 -0.0075822994 0.0012116979 -0.007186026 -0.007933628 -0.00845694 0.0024791518
-0.0034831485 0.008306957 0.0043790755 -0.0064853947 0.0052904584 -0.0006093714 0.0075861695 0.0067741573
-0.00092195807 -0.0068494487 0.008097775 -0.0031804596 0.0025402165 -0.0065663853 0.0061745406 0.0055889594
0.0032248115 0.011262616 0.009155552 0.004137079 -0.004647616 0.00991436 0.0025202404 0.0048875376
-0.00052313315 -0.0056522638 0.004262915 0.008246392 0.010600017 -0.007939587 -0.005659281 -0.004142851
0.0051873676 0.0074452083 -0.006241675 3.5836554e-05 -0.0005614817 -0.00690062 -0.008369174 -0.007212888
0.004187452 0.0031635494 0.007837573 0.002963395 -0.004600242 0.0030586915 -0.010654105 -0.010851112
-0.005461545 -0.01077731 -0.004973532 0.000394846 -0.0064325156 -0.008017933 0.008300374 -0.010012008
-0.0089852335 -0.009601153 0.0033021893 -0.0037819776 0.0013937929 -0.0046205814 -0.008221367 0.0007647461
-0.0044957614 0.001335063 -0.006800751 -0.010104588 0.007861397 -0.008367248 -0.0069841007 -0.0098870685
0.0004933938 0.007673969 -0.00743707 -0.0049464824 0.0069762855 0.0043596886 -0.0020883863 -0.0069323718
-0.009772325 0.0062272544 -0.0020473457 0.00786136 -0.00075526256 0.0075087273 -0.0013119928 -0.002705998
0.0010094779 -0.0046773218 0.0058444343 -0.009714708 -0.0032219382 -0.009054028 0.004712857 0.00064635446
0.005100199 -0.00959083 -0.0034538424 -2.8525214e-05 0.004912541 0.0033810588 0.0017559761 0.00078803755
0.006036781 -0.0060423315 0.0060324203 -0.0012923587 -0.007817504 -0.0047248667 0.0037014666 -0.0044577406
-0.0006929229 0.00064318074 -0.0031975105 0.0020939226 -0.010138963 0.0038194652 -0.0018670728 0.001574327
0.008070893 0.0025873384 0.008619883 -0.009631723 -0.0054801437 -0.0022497051 -0.007717976 -0.0038244382
0.0011448216 0.00044897426 0.002554667 -0.009733888 0.005727311 0.0010683754 -0.009061531 -0.0041145263
-0.0010068917 -0.00418213 -0.0037163014 -0.008306752 -0.00422616 -0.002070975 0.0005630759 0.0007278522
0.0011777108 0.00017430639 0.0030473203 -0.0011631151 -0.0021845216 0.010430143 0.0021740282 0.0017352094
-0.0075912545 0.0031460417 -0.0013836868 0.007583169 -0.008608944 0.0077850353 -0.0021603452 0.0014039493
-0.0014014118 0.0067949565 -0.003720307 0.0070074475 -0.0016281703 0.0041672313 0.009254208 0.010013204
-0.0011881528 0.001349736 0.0001235074 -0.0020387766 -0.010440459 -0.0044109873 0.005411026 -0.008691115
-0.006492826 -0.00431678 0.009553396 -0.0057717776 -0.005603692 -0.0073167337 -0.010555548 -0.011630719
0.009073993 0.0037459077 -0.008107242 0.0005583215 -0.0032263272 0.006520907 0.0020950264 -0.0019560114
-0.0061087436 0.00063607853 -0.002548844 -0.0026526009 -0.009394363 0.008126232 -0.0033376007 -0.008042956
0.009330466 0.008651969 -0.0077443747 0.009627461 0.005019044 0.0074812984 0.006703062 -0.0056449687
-0.0010672404 -0.0008002723 -0.0071458416 0.0014768486 0.0022373844 0.0070928046 0.005007713 0.008890383
-0.0026962273 0.002829192 -0.008006827 0.0045025945 -0.003695367 0.00554706 0.0029379237 -0.0054615843
0.0019350785 -0.0037640056 -0.007095211 0.009120219 0.011508242 -0.0033788614 0.00610971 0.007562547
0.008351372 -0.00023324939 0.010612024 0.001499226 -0.00956863 0.004845529 0.0045288787 -0.0017854507
00000000: 832f d53b 00e4 37ba 48a2 e73b e1d6 26bb
00000010: 20a2 2a3c 3851 953b fe7f 01bc 2bb2 e93b
00000020: c928 82bb 4f9a 4f3b f074 f8bb d6d1 9e3a
00000030: c178 ebbb 0cfc 01bc fa8e 0abc 4479 223b
00000040: 8945 64bb e719 083c 597e 8f3b 6f83 d4bb
00000050: 955b ad3b 39be 1fba 6795 f83b c0f9 dd3b
00000060: 8faf 71ba 5771 e0bb 88ac 043c 426f 50bb
00000070: c379 263b d52a d7bb cd53 ca3b 9723 b73b
00000080: 5c57 533b d686 383c 2b01 163c 5690 873b
00000090: 074b 98bb d76f 223c 9e2a 253b a327 a03b
000000a0: df22 09ba a036 b9bb ecaf 8b3b e01b 073c
000000b0: b2ab 2d3c 0b15 02bc 7d71 b9bb c1c0 87bb
000000c0: cbfa a93b eff6 f33b f786 ccbb 354f 1638
000000d0: 6630 13ba 991e e2bb dc1e 09bc 175a ecbb
000000e0: e536 893b 8d53 4f3b 2a69 003c 8535 423b
000000f0: a0bd 96bb 5474 483b 8e8e 2ebc ddc8 31bc
00000100: c3f6 b2bb 5093 30bc 03f9 a2bb 5503 cf39
00000110: dac7 d2bb a65d 03bc 4bfe 073c 6809 24bc
00000120: cd36 13bc 284e 1dbc 8b69 583b 0edb 77bb
00000130: eeaf b63a 3f68 97bb eab2 06bc 3e79 483a
00000140: 2e51 93bb 48fd ae3a d6d8 debb b78d 25bc
00000150: 17cd 003c c816 09bc e2da e4bb 5ffd 21bc
00000160: 1957 013a eb75 fb3b aab2 f3bb 1a16 a2bb
00000170: 5399 e43b b8db 8e3b 4fdd 08bb f328 e3bb
00000180: 1a1c 20bc ff0d cc3b c32c 06bb efcc 003c
00000190: d0fc 45ba c50b f63b 2cf7 abba 1d57 31bb
000001a0: 7550 843a 3844 99bb ab82 bf3b 702a 1fbc
000001b0: 2727 53bb 5957 14bc 4f6e 9a3b 1d70 293a
000001c0: 921f a73b db22 1dbc dc59 62bb 6e49 efb7
000001d0: 61f9 a03b c194 5d3b c828 e63a 4e94 4e3a
000001e0: 30d0 c53b c0fe c5bb 9cab c53b 5d64 a9ba
000001f0: fd14 00bc 0ed3 9abb 4e94 723b 3d12 92bb
00000200: 45a5 35ba 219b 283a 538d 51bb 313a 093b
00000210: e51d 26bc fe4f 7a3b 91b8 f4ba a659 ce3a
00000220: c73b 043c 5690 293b 693a 0d3c 60ce 1dbc
00000230: c792 b3bb ca6f 13bb 13e7 fcbb 6da3 7abb
00000240: d70d 963a 4e64 eb39 336c 273b e37a 1fbc
00000250: 2bac bb3b bb08 8c3a d176 14bc 26d3 86bb
00000260: aef9 83ba 400a 89bb 318d 73bb 0b19 08bc
00000270: 997b 8abb 32b9 07bb 629b 133a 56cd 3e3a
00000280: 6b5d 9a3a 04c6 3639 8db5 473b ab73 98ba
00000290: 312a 0fbb 31e3 2a3c 247a 0e3b f76f e33a
000002a0: 0fc0 f8bb d22d 4e3b d35c b5ba 3b7c f83b
000002b0: 870c 0dbc 9c19 ff3b 9494 0dbb b904 b83a
000002c0: 94af b7ba 3aa8 de3b 65d0 73bb bb9e e53b
000002d0: 5468 d5ba 458d 883b f69e 173c 6c0e 243c
000002e0: cbbb 9bba a0e9 b03a c481 0139 ff9c 05bb
000002f0: 750e 2bbc 0b8a 90bb fa4e b13b 2e65 0ebc
00000300: c6c1 d4bb c673 8dbb d985 1c3c 2e21 bdbb
00000310: 2d9f b7bb 36c1 efbb 2df1 2cbc c58e 3ebc
00000320: 16ab 143c e77d 753b 3dd4 04bc 525c 123a
00000330: ca70 53bb 55ad d53b b64c 093b 6d30 00bb
00000340: db2b c8bb 82be 263a 820a 27bb 42d7 2dbb
00000350: d0ea 19bc e323 053c a6bb 5abb 9ac6 03bc
00000360: d0de 183c fdc0 0d3c 86c4 fdbb 80bc 1d3c
00000370: cb76 a43b ae25 f53b 5ca5 db3b 6ef9 b8bb
00000380: a5e2 8bba 5dc9 51ba aa27 eabb d192 c13a
00000390: 15a1 123b c26a e83b be17 a43b f8a8 113c
000003a0: 30b3 30bb f769 393b 112f 03bc 808a 933b
000003b0: f82d 72bb 1dc4 b53b 2e8a 403b 17f7 b2bb
000003c0: 76a2 fd3a 89ad 76bb f27e e8bb f96c 153c
000003d0: 118d 3c3c e36f 5dbb f633 c83b 3ecf f73b
000003e0: 31d4 083c 6894 74b9 0ede 2d3c ad81 c43a
000003f0: bec5 1cbc 3ec7 9e3b fd66 943b c905 eaba

linear_layers.0.bias f4 [2]
-0.0024002849 0.0063352757
00000000: 194e 1dbb 2598 cf3b
