src/models/covid_cnn.pth (torch, 87375 bytes, 14 tensors)

cnn_layers.0.weight f4 [10, 1, 3, 3]
000000 c8 4f 61 bd 4e 3a a3 be 51 a5 96 3e ad 7a 2c be
       -0.055007726 -0.3188042 0.29423 -0.16843672
000010 a6 09 02 bd 62 fa 4b ba 09 ed b5 3d 6b 93 9f be
       -0.031747483 -0.00077811454 0.088831015 -0.31167158
000020 d6 b5 9d be 7e 5f 63 bd b0 19 6a bc 8e 2a 9e 3c
       -0.30802792 -0.05551099 -0.014288351 0.019307401
000030 f4 a8 8e be bc a2 cf 3c 9b 9b 3a 3e da 08 a0 3e
       -0.27863276 0.025346152 0.18223421 0.31256753
000040 9f 29 a2 bd 89 e1 82 3e 71 69 64 bd 6f 3d 2a 3e
       -0.07918095 0.25562695 -0.05576462 0.16624998
000050 8e c8 f0 bc 55 7a 2e be 61 32 5c 3d c1 c9 47 be
       -0.029392507 -0.17038853 0.053758983 -0.19510557
000060 2f 4c 58 3e de 75 85 3e 56 20 ae bd 23 14 90 bd
       0.21122812 0.26066488 -0.08502261 -0.07035091
000070 9d b0 9d 3e d7 2f a1 3d da 74 d8 3d 8c f1 6b 3e
       0.30798808 0.07870453 0.10569163 0.23041362
000080 40 b2 08 3e 95 c7 8c 3e 6a d8 66 be f6 ad 88 3d
       0.13349247 0.2749602 -0.22543493 0.066738054
000090 f7 39 80 be 14 4a 8e 3e 34 d8 8f bc ab 90 9d be
       -0.25044224 0.27790892 -0.017559148 -0.30774435
0000a0 40 78 88 3e 18 cb df bd 66 a5 30 be a5 71 44 be
       0.26654243 -0.10927409 -0.17250594 -0.19183977
0000b0 2f 80 a2 be c2 dc dc bc a9 ca 32 3e 26 c7 aa 3e
       -0.3173842 -0.026960734 0.17460121 0.33355063
0000c0 b1 4f 4d 3e c7 8c dc ba 45 17 94 be a4 1c 25 3d
       0.20049931 -0.0016826623 -0.28924003 0.040310517
0000d0 a5 20 97 3e a7 5c 42 3c 91 5b 2e be 9b 41 00 3e
       0.29517093 0.01186291 -0.17027117 0.12525027
0000e0 2c f9 b6 bd 47 6f a8 3e 8e eb 39 3e c5 c9 92 be
       -0.089342445 0.32897398 0.18156263 -0.28669563
0000f0 9d 67 56 3d b4 61 05 be b8 4f 6f bd f4 7c f5 3d
       0.052344907 -0.13025552 -0.058425635 0.119867235
000100 a4 65 90 be da 34 a5 be db 2e c6 3d eb 3f 8e be
       -0.28202546 -0.32266885 0.09676906 -0.2778314
000110 f5 7e 89 be ca c7 da 3d 2e 29 41 bc 7b c7 e5 3d
       -0.26854673 0.10682638 -0.011789603 0.112196885
000120 8e 92 52 bd b8 9a 9b be 8c 44 88 bc ee 71 30 be
       -0.051409297 -0.3039148 -0.016634248 -0.1723096
000130 68 42 31 3e 0f 1d a9 bd 03 32 05 3e fd 42 3b be
       0.17310488 -0.082574956 0.13007359 -0.18287273
000140 a2 e9 a9 bc 9d 2f a5 be 6a 3e ab bd 22 4a a7 3e
       -0.020741288 -0.3226289 -0.08361514 0.32673746
000150 18 da ad b9 1e 75 42 3e 03 7f b1 bd 8a 7e eb 3d
       -0.00033159624 0.18989989 -0.08666804 0.11498745
000160 69 47 80 3e 19 c4 99 bc
       0.25054482 -0.018770264

cnn_layers.0.bias f4 [10]
000000 a0 b5 70 bd a3 1f 2e 3c aa c5 f8 3d d6 3f 07 be
       -0.05876696 0.01062766 0.121470764 -0.13207945
000010 61 64 1c be 43 37 7e bd 47 77 13 3e e7 01 65 3d
       -0.15272667 -0.06206442 0.1440097 0.055910017
000020 69 b5 0f be 8a f8 5e 3e
       -0.14034046 0.21774498

cnn_layers.1.weight f4 [10]
000000 3d 1c 80 3f 12 7f 7f 3f 9c 5d 7f 3f bb a7 7f 3f
       1.0008618 0.9980327 0.9975221 0.9986531
000010 91 22 80 3f c4 2d 80 3f 58 0d 80 3f 8f ea 7f 3f
       1.0010549 1.0013967 1.0004072 0.99967283
000020 84 31 80 3f 0d 69 7f 3f
       1.0015111 0.9976967

cnn_layers.1.bias f4 [10]
000000 b7 19 16 3a f1 8c 33 bb 1d 29 1c bb 49 54 37 bb
       0.00057258777 -0.002739724 -0.0023828216 -0.0027973822
000010 67 91 28 3a da 87 03 bb 47 3c 28 ba 10 cf 47 3a
       0.0006430358 -0.0020069988 -0.00064176734 0.0007622102
000020 e2 ea b5 3a 85 ff 27 bb
       0.0013879205 -0.002563448

cnn_layers.1.running_mean f4 [10]
000000 1d e8 77 bd bc 8a 3d 3c 6f 32 f9 3d a6 ed 04 be
       -0.060524095 0.011568721 0.121678226 -0.1298128
000010 e1 6c 1e be 47 95 76 bd ad 73 13 3e 6f c6 5d 3d
       -0.15471222 -0.060200956 0.14399596 0.05414432
000020 62 c6 10 be c4 aa 5f 3e
       -0.14138177 0.21842486

cnn_layers.1.running_var f4 [10]
000000 36 19 14 3a 05 e4 13 3a 2b d8 13 3a e5 27 14 3a
       0.00056495087 0.00056415825 0.00056398165 0.00056516967
000010 da 1a 14 3a 9c 0c 14 3a 9e d6 13 3a d4 0f 14 3a
       0.0005649753 0.0005647631 0.00056395854 0.00056481105
000020 ef f0 13 3a 8e e4 13 3a
       0.0005643507 0.0005641662

cnn_layers.4.weight f4 [4, 10, 3, 3]
000000 dd 59 5a 3d 6b 9f bd 3d ef 71 de 3c 55 2f 3f 3c
       0.053308357 0.09258922 0.027153937 0.011669
000010 35 60 9c 3d 58 5d 8e bc fd 36 9a 3d 1d 54 35 3c
       0.076355375 -0.017378494 0.075300194 0.011067417
000020 ad 13 3c 3b 0b c9 d0 bc 59 0a 9c 3d b1 b8 92 bc
       0.002869825 -0.02548649 0.07619161 -0.017910333
000030 e9 c8 88 3d a8 7a b4 bd 61 f5 19 3d 5b 89 c6 3d
       0.066789456 -0.08812457 0.037587527 0.09694167
000040 ec d5 68 bd dd 95 65 bc 21 37 56 bd 04 6e 68 bc
       -0.056844637 -0.014012781 -0.05229867 -0.014186386
000050 6c 5f b7 bd b6 6c 5e bd f5 29 50 3d 76 24 80 3d
       -0.08953747 -0.054302894 0.050821263 0.06256954
000060 4f fe d3 bc de 3e a3 bd 86 be 08 3c 66 20 72 3d
       -0.0258781 -0.07970975 0.008346206 0.05911293
000070 ac 89 48 3d e9 e0 c7 bd 90 22 4f 3d 7e 75 58 bd
       0.04895942 -0.09759695 0.05057007 -0.052846424
000080 34 0f d7 bd 05 f8 4b 3d 81 27 f7 bc a4 e9 cc 3d
       -0.10500947 0.049797077 -0.030170204 0.10005501
000090 bc cb 60 3d d0 01 c5 bd 27 5b 80 bd 7c 56 67 3d
       0.054881796 -0.09619486 -0.06267386 0.056478962
0000a0 09 c6 a7 bd 71 ec 56 bd 56 78 9b bd f0 af bc bb
       -0.08192069 -0.05247158 -0.07591312 -0.005758278
0000b0 7b 26 d2 bc 2c e6 30 bd 20 c7 98 bd 7d ac 6f bb
       -0.025653115 -0.04318826 -0.07459855 -0.0036571317
0000c0 55 73 61 bd 0a 7a 22 3b 93 7c d2 3d ac d5 ec 3c
       -0.05504163 0.002479198 0.10277667 0.02891048
0000d0 94 3e 6d 3c e0 32 96 3c a0 a0 0c bd f9 0f cb bd
       0.014480252 0.018334806 -0.03433287 -0.09915156
0000e0 ce d2 ca bd a5 1f 25 3d 6e 13 d6 bd b6 1a 80 3c
       -0.09903489 0.04031338 -0.10452925 0.015637737
0000f0 20 e4 30 bd f1 8b 77 3d e5 ea 64 bd 66 50 cc 3d
       -0.043186307 0.060436193 -0.055888075 0.09976272
000100 92 49 f6 3c c9 7b ce 3d 7e d8 f7 bc ac d4 90 3d
       0.030064378 0.10082204 -0.030254599 0.07071814
000110 53 35 98 bd ce 73 be bd f2 05 8f 3d cd e4 c1 3b
       -0.07432046 -0.09299432 0.06983556 0.0059171678
000120 74 40 c0 bc 2e 0f 84 bd 7e ec 45 3d cd 77 14 3d
       -0.023468234 -0.06448208 0.04832124 0.036247063
000130 9a ce c7 39 67 ab 1d bd ea c7 b5 3d 7a 35 a6 3d
       0.00038110168 -0.03849354 0.08876021 0.081156686
000140 8e b0 89 bd dd f3 55 3d 66 68 c3 3c 66 7b 8d 3d
       -0.06723128 0.05223452 0.023853492 0.06908302
000150 d0 24 b7 bc a2 40 8f bc f3 64 fd 3c 2b ff 2f 3d
       -0.02235642 -0.017486874 0.030931925 0.042967957
000160 b0 ec b2 3d 27 70 57 bd 05 cf ac bd c0 04 11 3d
       0.08736551 -0.05259719 -0.08437923 0.03540492
000170 60 03 38 bc df ec 4d 3d e6 b9 69 bc d6 f4 c5 bd
       -0.011231273 0.050274726 -0.014265513 -0.096658394
000180 53 a1 f4 bc cd 1c 75 3d 96 9b 5f 3d 71 99 ad 3d
       -0.029862082 0.05984192 0.054591738 0.08476532
000190 da 0e c8 3d 36 6e a1 3d a8 9e 82 bd 27 48 45 bc
       0.09768458 0.07882349 -0.063779175 -0.012041128
0001a0 ff 1a bd bd 30 18 6c 3d df 5f 15 bc bc 04 8b bb
       -0.09233665 0.057640254 -0.009117096 -0.0042425077
0001b0 4b 03 c3 3d 35 c1 5f bd d2 de 81 3d be b3 a5 bb
       0.095221125 -0.054627616 0.06341328 -0.0050568273
0001c0 83 d9 2b 3d 33 f0 b9 3c c9 41 51 bd f6 c0 cf bd
       0.041955482 0.022697544 -0.05108813 -0.10144226
0001d0 bd 8e 6b bd 8e e1 8a bd 81 aa 3c 3d 1e b1 cb bc
       -0.057509173 -0.067813024 0.046061043 -0.02486473
0001e0 c7 5c d6 3d 49 87 a4 3c 06 6c c7 3d cd de b7 3d
       0.104669146 0.02008404 0.09737401 0.08978043
0001f0 08 15 36 bd 47 6c a2 3d 90 32 76 bd bd fd ff bc
       -0.04445365 0.079308085 -0.060106814 -0.031248922
000200 3a 3d 55 bd 32 28 64 bd 1a 75 82 3d fa 02 05 bd
       -0.052060343 -0.055702396 0.063699916 -0.03247354
000210 53 ac 96 3d 53 9e 47 3d 8a 4e b8 bd 84 d4 af 3d
       0.07357087 0.048734974 -0.08999355 0.08585456
000220 aa c1 f9 3a fa c2 c3 bd dc 44 56 bd bc 32 ad 38
       0.0019054909 -0.09558673 -0.052311763 8.258733e-05
000230 56 79 ae bc 2e 85 a8 bd 50 96 96 3d fe 80 a3 3d
       -0.021298092 -0.08228527 0.073528886 0.07983588
000240 0b fa af bd 53 41 da bb 0e a5 ca 3d 81 2e bb bd
       -0.08592614 -0.0066606193 0.09894763 -0.09139729
000250 ff d0 da bc 49 d7 89 bd 1a 45 0b bd c7 7e a3 bd
       -0.026710985 -0.067305155 -0.034001447 -0.07983165
000260 d0 11 28 3c b7 4e aa 3d d7 57 d5 3d cb cb 49 bc
       0.010258153 0.08315795 0.10417145 -0.012316654
000270 36 93 cd bd 9c b3 6e bc 51 c3 1f bd ab e7 af bb
       -0.10037844 -0.014569189 -0.039004628 -0.005368193
000280 e1 27 8e bd c7 55 58 3d b8 1a ce bc b0 72 43 bd
       -0.069412 0.05281618 -0.025159225 -0.047716796
000290 22 03 a7 3c 87 03 6e 3c ba 4f c9 3a 0d 9f 0f 3d
       0.020387236 0.014527208 0.0015358843 0.035063792
0002a0 a2 6e f7 3c 94 a0 17 bd 6d ef 4f 3c 36 68 b1 bd
       0.030204121 -0.037018374 0.012691361 -0.08662455
0002b0 ce 95 36 3d d1 c5 39 bc 8a 2c 4e 3d b5 b0 33 bb
       0.04457646 -0.011338667 0.050335445 -0.0027418558
0002c0 de c0 95 bc e7 8d ba 3d 77 4c 4d bc e9 bd ee bc
       -0.018280443 0.09109097 -0.012530438 -0.02914329
0002d0 0e 3a 86 b8 a8 e9 5a 3d c8 74 70 bd 76 c2 4a bd
       -6.4004314e-05 0.05344549 -0.05870512 -0.04950186
0002e0 37 2c 93 3c 05 d3 9b 3d bc dd 79 3d f3 c1 91 3d
       0.01796542 0.07608608 0.061002478 0.07117071
0002f0 d5 6c 35 3d 63 86 f7 3c 71 ae 9f 3d 48 d1 a3 3c
       0.044293243 0.030215448 0.07796944 0.019997254
000300 c5 a6 c8 3b 76 05 7b bd b6 51 57 bb c2 36 8c bd
       0.006123396 -0.061284505 -0.00328551 -0.06846382
000310 f9 4d 99 bc 3a c2 8e 3d 0e f1 91 3d 2c 09 d3 3d
       -0.018713938 0.069706395 0.07126056 0.10304484
000320 80 cb 48 3b cb 84 a5 3d c8 bf b7 3d 4b 72 3c 3a
       0.0030638874 0.08081969 0.08972126 0.0007188662
000330 55 a1 13 3d 47 11 ae 3d 74 e8 a1 3d ba 5a 3b bd
       0.03604253 0.08499389 0.07905665 -0.04574082
000340 aa 3c 29 3d 79 9b 53 3c 94 fa a9 bc 51 36 fb 3c
       0.04131762 0.012915486 -0.020749368 0.030665549
000350 00 c9 ec 3c 9f d5 86 bc ec 67 81 bd 65 71 d1 3d
       0.028904438 -0.016459284 -0.0631865 0.102267064
000360 bf 60 7a bd a4 28 bb 3d 5b 21 cb bd 9c 88 b7 3d
       -0.06112742 0.09138611 -0.099184714 0.08961603
000370 32 0d ab bd b7 86 bc 3d b8 78 ab 3c db 87 86 bd
       -0.08352126 0.09205382 0.020931587 -0.06568881
000380 4d 73 5e 3d 30 36 9a 3d 18 e1 6d 3d 51 af 65 3d
       0.05430918 0.07529867 0.058075994 0.056075398
000390 3b 8f a1 bc 9d 8f a3 3d 59 98 15 bd e8 92 99 3d
       -0.019721618 0.079863764 -0.036522243 0.07498723
0003a0 1e 23 8d 3c 43 13 80 3d 5b 91 a2 3c a0 c6 59 bc
       0.01722866 0.06253674 0.019844702 -0.013291985
0003b0 16 7d be 3d 7f a3 5a 3c 29 64 ca bd 28 fe aa bd
       0.09301202 0.013344645 -0.09882385 -0.08349258
0003c0 d1 4a 6d 3d ac de bf 3d 2f 23 9f 3d cc 17 c8 bc
       0.05793268 0.09368643 0.077703826 -0.02442541
0003d0 53 f1 a2 3d c5 6e 7b bd 4d ef d2 bc e6 2e 80 3d
       0.07956185 -0.061384935 -0.025748873 0.06258945
0003e0 37 55 95 bb 13 1c 44 bd c1 05 99 bd bf 79 75 3d
       -0.0045572775 -0.047878336 -0.074718006 0.05993056
0003f0 7f 7e ba 3d f6 92 0b 3c 7e e3 87 bb a5 0c c3 bd
       0.091061585 0.008518925 -0.004146992 -0.09523896

cnn_layers.4.bias f4 [4]
000000 b6 eb 65 3c 66 45 d7 3d e4 5f 2a bd 7a 57 06 bd
       0.014033249 0.105112836 -0.041595355 -0.032798268

cnn_layers.5.weight f4 [4]
000000 72 0c 80 3f 7c 40 80 3f 05 0a 80 3f 3f 33 80 3f
       1.0003798 1.0019679 1.0003058 1.0015639

cnn_layers.5.bias f4 [4]
000000 a0 fa 32 ba bf ac 8d ba 82 1b f4 ba 75 c2 ad 3a
       -0.0006827507 -0.0010808929 -0.0018623921 0.0013256805

cnn_layers.5.running_mean f4 [4]
000000 03 d6 78 3d b9 51 03 3e 76 bb ec 3d bf 96 07 be
       0.060750972 0.12824143 0.11559193 -0.13241099

cnn_layers.5.running_var f4 [4]
000000 66 72 1a 3b b8 ee 18 3c 85 5a 12 3c c9 68 2f 3b
       0.0023566722 0.009334259 0.008932714 0.0026765338

linear_layers.0.weight f4 [2, 10000]
000000 1f 36 09 bc 04 aa 84 bb 51 0f 7e bb c5 84 68 bb
       -0.00837472 -0.0040485878 -0.0038766454 -0.0035479527
000010 6a 57 e6 3a e4 aa 01 bc ec cc 05 3c f4 79 ab bb
       0.0017573659 -0.007914279 0.008166533 -0.005233044
000020 6c 35 38 3c 3e 09 9f bb c3 db fb 3a d4 2c 88 38
       0.0112432055 -0.0048533967 0.0019215274 6.493335e-05
000030 40 3e fd 3b 77 18 59 3b 21 63 0b bc f8 64 f9 3b
       0.007728368 0.0033126154 -0.008507521 0.0076109134
000040 08 3e ae 3b f5 95 3a bb 66 f6 80 3b d1 19 87 3a
       0.0053174533 -0.002847073 0.003935623 0.0010307377
000050 96 8c a1 3b d4 ea 0c bc c5 e0 a6 3b 53 07 28 ba
       0.004930089 -0.008600909 0.0050927126 -0.0006409783
000060 d6 f1 91 bb 74 09 aa bb 7c 16 c1 3b a2 26 8a bb
       -0.004453878 -0.005189115 0.005892573 -0.004216031
000070 fe 87 8b 3a f5 ac 00 bc a1 e3 b0 3b d6 b3 28 3c
       0.0010645387 -0.007853736 0.005398229 0.0102967825
000080 30 f0 7e 3b 74 ea 94 bb 04 6f ec 37 ed 0b ab b9
       0.0038900487 -0.0045445506 2.8185088e-05 -0.00032624547
000090 96 c4 96 3b 14 5e 18 3c b9 5f cd 3b 4c dd 95 bb
       0.0046010716 0.009299774 0.0062675145 -0.0045735
0000a0 4d 71 34 bb 7e 1a d7 3b 42 7c 8f ba 36 8b c3 3b
       -0.0027533353 0.0065644374 -0.0010947066 0.005967523
0000b0 c7 7e a2 3b 40 f6 b8 bb e5 0e 05 bb 73 d5 1d bb
       0.0049589607 -0.0056445897 -0.0020303067 -0.0024083524
0000c0 54 fa 1e 3b 5f e4 d5 3b b4 00 ff 3b 6a 26 02 bc
       0.0024258094 0.006527468 0.0077820662 -0.007943729
0000d0 e3 7d 8d 3b f6 04 2b 3c 66 fb ea 3b d9 64 f5 3b
       0.0043179854 0.0104381945 0.0071710823 0.0074888286
0000e0 63 b3 55 3b 5e 9c e8 bb 85 76 2f 3b c6 0b cd bb
       0.0032608144 -0.0070987185 0.0026773524 -0.006257507
0000f0 17 e8 0a bc 54 e7 dd 3b 9f 92 2e 3c 31 be 31 3c
       -0.008478186 0.006771961 0.010655074 0.010848568
000100 02 2d 11 3b a5 6d 27 3c f7 48 bc 3b dc 2f 83 bb
       0.002215207 0.010219012 0.005746003 -0.004003508
000110 a4 6b fa ba ba e9 bf 3a 1d 01 3f bb 56 c5 d4 ba
       -0.0019105566 0.00146418 -0.002914495 -0.0016233127
000120 05 07 8f bb 98 fa bf bb 88 ff d4 bb 53 92 bf bb
       -0.0043648505 -0.0058587305 -0.0065001883 -0.0058463006
000130 e9 24 1b 3a 5d 17 d7 3a d5 1b 40 ba 02 9c e8 3b
       0.0005918281 0.0016410161 -0.0007328366 0.0070986757
000140 f5 70 62 bb d6 e3 04 bc 09 ee 20 3c af 96 fc bb
       -0.003455219 -0.008110961 0.009822377 -0.0077083926
000150 9a 99 24 3c 7b 87 2f 3c 9e 99 f1 3b c3 79 43 3b
       0.010046387 0.010713453 0.007373049 0.0029827214
000160 bf 9d 32 3c 57 37 e8 3b 5a 32 8a b9 64 94 a4 ba
       0.010901867 0.007086675 -0.00026358926 -0.0012556431
000170 fe ec 65 bb 24 5e 10 bb 75 39 f1 bb 1d c0 d2 3b
       -0.0035083885 -0.0022028768 -0.0073615857 0.006431593
000180 f7 63 71 ba 84 ef dc 3b 72 e2 c0 3b 32 e4 a9 3a
       -0.00092083163 0.0067424197 0.0058863694 0.0012961684
000190 34 f7 dd bb a5 18 d5 3b d2 11 1c bb 07 10 07 bb
       -0.0067738537 0.006503182 -0.0023814333 -0.0020608918
0001a0 8c c1 3f 3c 22 d4 81 3b b2 da e9 3b 91 f3 ee 3b
       0.01170386 0.003962056 0.007136666 0.007292219
0001b0 1e f7 8b 3b b2 bd 2c bb ce a5 9d bb 4a 28 5c 3a
       0.004271402 -0.0026358184 -0.004811025 0.00083983375
0001c0 3b 57 e8 3b 8c 01 e4 39 22 ba 0d bb 8e 79 b3 bb
       0.007090477 0.000434887 -0.0021625836 -0.005477137
0001d0 d4 26 93 bb c4 3e ab ba 5e 53 42 bb 52 74 fa bb
       -0.0044907127 -0.001306497 -0.0029651741 -0.007643261
0001e0 85 fc aa ba 8a e3 69 3b c1 57 f9 3b 6c 9e 3d bb
       -0.0013045227 0.0035688602 0.007609338 -0.0028933538
0001f0 63 7f b4 b9 b4 6e 44 ba 74 ad 01 bb 38 9c 96 bb
       -0.00034427186 -0.00074933027 -0.0019787224 -0.0045962594
000200 e4 70 99 ba 36 a4 d1 3b 19 17 fd ba 57 38 e9 bb
       -0.0011706618 0.0063977493 -0.0019309252 -0.007117312
000210 6f 66 c8 38 c1 b8 8b 3b 34 10 31 bb 21 37 96 ba
       9.555823e-05 0.0042639677 -0.0027017714 -0.0011460521
000220 ac 95 86 3b 47 72 06 bc ab 92 98 3b ea 43 7d bb
       0.0041071977 -0.008205957 0.004656156 -0.0038645216
000230 e2 df 60 b9 3d fb da bb 13 d4 84 b8 02 39 be 3b
       -0.00021445708 -0.006682782 -6.3337524e-05 0.0058051357
000240 e4 c1 aa 3a 6a 6f 92 3b 5c 66 a2 3b a1 40 b8 3b
       0.0013027755 0.004468848 0.00495605 0.0056229387
000250 db df 47 bb 30 e4 fc ba a5 3b 34 3c 93 19 1a bb
       -0.0030498418 -0.0019294079 0.0110005485 -0.0023513779
000260 53 3e df 3b 32 8f 03 3b e8 ae 2d 3c 4b 78 f1 ba
       0.0068128495 0.0020074365 0.010600783 -0.0018422691
000270 2e b4 82 3a e6 f0 ff bb 0a b9 91 3b 6a 8b 21 3b
       0.0009971911 -0.0078106998 0.004447107 0.0024649748
000280 ac a8 c8 3b 84 3a 4b bb 40 9b 22 b7 75 52 75 bb
       0.006123623 -0.003101022 -9.692099e-06 -0.0037433181
000290 47 fa 71 bb be a1 a4 3b 48 8d 5c bb 9f 75 b1 3b
       -0.0036922859 0.005024164 -0.0033653546 0.005415633
0002a0 d2 9b a6 b9 be 46 b5 bb c0 0c d9 39 ea 16 8d b9
       -0.00031778082 -0.0055321148 0.00041398965 -0.00026910688
0002b0 bc ec 17 bc 93 d4 3a bc fb 21 59 bb 08 5f 04 3c
       -0.0092727505 -0.011403221 -0.0033131826 0.008079298
0002c0 8f 15 d3 bb 5e bd 1b 3b 23 dc 0f 3c f5 db 00 3b
       -0.006441779 0.0023763995 0.008780512 0.0019662355
0002d0 eb f5 8b bb 74 c2 ec 3b 9b 99 47 3b 42 cf 7b 3b
       -0.004271259 0.007225329 0.0030456546 0.0038423096
0002e0 f8 db 1a bc b7 c7 d0 bb 3f ef 99 3a 4c 82 f3 bb
       -0.009451859 -0.006371464 0.0011744275 -0.007431304
0002f0 e8 7b 4e bb c7 71 5a bb 0e 9d 3c 3b 21 ac 46 3a
       -0.003150696 -0.0033331977 0.0028780135 0.000757875
000300 52 c8 b4 bb a3 24 47 ba 84 62 40 bb 78 91 8c 3a
       -0.005517044 -0.0007596707 -0.0029355595 0.0010724505
000310 8a 30 ac bb 51 b1 87 bb 06 24 fb bb df 07 d0 bb
       -0.0052548097 -0.004141011 -0.0076642064 -0.0063485946
000320 e4 a8 bc bb 56 94 dc 3b 69 ee dc bb 38 dc f2 3a
       -0.005757438 0.00673155 -0.006742288 0.0018528765
000330 9d ef 02 3c 4c 49 8b 3b c0 44 f0 ba c9 c4 90 bb
       0.007991699 0.004250681 -0.0018331036 -0.00441799
000340 3a 1a 14 3b 02 af cb bb c7 de b6 3b 8d 39 9f 3a
       0.002259864 -0.006215931 0.0055807563 0.0012147889
000350 15 06 0b 3c 1d 0d b7 bb 1b a1 8d 3a 1b 2e b3 bb
       0.008485337 -0.00558628 0.001080546 -0.0054681427
000360 54 13 d8 3b e9 70 3f bc 92 f1 63 bb 97 98 d9 bb
       0.006594101 -0.011684635 -0.0034781438 -0.0066405046
000370 81 e3 f8 ba 41 d0 4a 3b 25 35 58 3b 26 88 0e bc
       -0.00189887 0.0030946883 0.003299066 -0.0086994525
000380 ca 1c b5 bb b7 f8 08 3b 1b b2 1a 3a bb 32 03 3c
       -0.0055271136 0.0020900199 0.00059011736 0.008007701
000390 a7 28 eb bb d5 c3 a6 3b 62 75 2d ba 19 66 1d bc
       -0.007176477 0.005089263 -0.00066169177 -0.0096068615
0003a0 50 bf df bb 3f 0a 1c bb 68 97 90 3b 5c cc 04 3a
       -0.006828226 -0.0023809818 0.0044125803 0.00050658523
0003b0 f0 3e ef 3b 0a c4 ff 3a 7a fa dd ba 1d e7 dc 3a
       0.007301204 0.001951338 -0.001693561 0.0016853545
0003c0 43 f8 12 3c fd 63 7b 3b 8b 66 98 3b 8c 79 a6 bb
       0.008970323 0.0038359158 0.004650896 -0.0050804075
0003d0 e4 bf 00 3b d4 e5 06 3c 47 aa 33 3c d9 a0 d8 bb
       0.0019645626 0.008233506 0.01096589 -0.0066109714
0003e0 d1 68 11 bc 20 24 80 bb 10 e3 b8 bb e6 f1 fe bb
       -0.008875088 -0.0039105564 -0.0056423023 -0.0077803014
0003f0 b0 37 0e 3c 1f a2 f4 bb 74 6d a8 3b c2 7a 84 3b
       0.008680269 -0.0074656154 0.005140001 0.004042954

linear_layers.0.bias f4 [2]
000000 84 18 25 3c 44 43 94 3b
       0.010076646 0.0045246202
