src/models/evaluation_DQN_policy.pth (torch, 8235 bytes, 6 tensors)

fc1.weight f4 [32, 8]
00000000: 51d4 16bd b72f 74bd beb0 e2bf d225 1640
00000010: 7890 4e3f 8c0d 583e 97c2 aa3e 7ac9 b43e
00000020: eb25 fc3d 1fcb 50c0 5c9e 5b3f fedc dd3f
00000030: 2af1 b2be 1fde 34be 2625 c43e 4790 523e
00000040: bc58 34be 49f5 d33e f4f4 47be 01b8 6f3f
00000050: 87f4 adbe 491d 04bf 1d59 88bf 0527 8dbe
00000060: 1b44 bebe 4af5 063e c097 abbe 55bd febe
00000070: 8f7f 7bbf aab0 5f3f 2c30 cd3d b216 253f
00000080: 9e35 aabe 7073 4cbf 0d54 eabe a005 8cbf
00000090: 23e2 103e 84f0 5cbe 6fab 86be b946 113d
000000a0: e697 18bd a350 8d3e d703 823e 5f70 0d3f
000000b0: bf09 b03f 040b 623f 62e6 d1be 4307 c8bf
000000c0: 84ce 933d ce90 c53f 7d34 b33f 8695 2cbf
000000d0: bb44 97bf 2e90 013f a62d 30bd ba48 183f
000000e0: ce9f e7be 1612 27c0 2ef7 3a3f 605c 27bf
000000f0: 9d85 01bf cfce 9b3e b7ef d1be 17a2 8bbe
00000100: d787 bb3e 76d6 b439 f4cf b73b c142 1dbe
00000110: 1200 27bf 1bfc ccbe 5754 f43e 660b c13f
00000120: bea8 773d 7e72 0a3f 8793 2b3f f12c 973f
00000130: 793c 63bf 4f31 10bf 8b68 43be f2dc 9f3d
00000140: 04f8 a7be 78a2 043d 04ca 71bf cb97 3fbd
00000150: 4995 c1bd d09a 43bf 8d65 1ebf 18f8 163f
00000160: 4dda febd 6885 8a3e ac28 0c3e cc68 743f
00000170: c1cf 16bf 64b1 43bf c6af 26be ff8b a73e
00000180: c615 47be 965a f93e c650 e3bf 9b83 4c3f
00000190: c2b8 9e3f a25d fd3d d1e2 fd3d 8718 c9be
000001a0: 86e8 d03e 0f82 2dbd 760f 28c0 dab8 053f
000001b0: 473e cdbf dfe0 36be 4f68 83be f1be 84bd
000001c0: 3dc8 c1bd 676b 3dbf 2f0f 8f3d 449a 22bd
000001d0: b553 a6bf 56f5 5cbf 6a64 26bf 1104 993b
000001e0: 1c30 0f3f 179d d13e a8fb fdbe d0da 8dbf
000001f0: 3e93 0ebf d4cb 2cbf d778 fdbd d65c b73e
00000200: e536 0dbc 5657 0f3e 176a 50be ba7c 19be
00000210: 0a4d 24bf f14c 8cbf c265 77bf 2cb5 e13e
00000220: 5f4b bebe eb73 873f d8a3 153f f7bf 25bf
00000230: 152a d7bf 6900 58be f78f f1be b4b5 853f
00000240: e58e a7bf b4c8 013f b785 86bf 8efd 6c3e
00000250: f86b 383d aaf6 303f b096 75be 5cf3 4f3f
00000260: 934a 85bf 7f51 c0bf afd0 7c3e f3ad a5bf
00000270: b238 02bf 16ce 8bbe e51a 8f3e 936f dabd
00000280: 68cc 173f 8981 9a3e 1b28 a53d c87c c03e
00000290: 453f 263e a821 1e3f 07ff a03e 462d 5cbf
000002a0: feb2 56bf 796c b7be 50f0 a7bf a5aa 03bf
000002b0: de23 203f 063b 4f3f 6d66 723e 462d c5be
000002c0: 55fb 303f 0e78 b73f cdce 3fbf fc0e 863e
000002d0: a01f 963e f04b 703f 7630 22bf dd25 983e
000002e0: 1123 f8bd 1980 7a3f 963e a1bd e86c 25bf
000002f0: 5597 6e3f 0826 e3bf 49cb 33be a83f ad3c
00000300: 2678 5d3f 147c 05bf 6a87 cc3f 0ff9 ebbe
00000310: 4fd7 0dbf 8996 4e3c 85e6 b4bd 7f39 97bc
00000320: 1b74 b33d 851c 9a3c 1a45 67bf c013 63be
00000330: ba5c 99be 1508 0dbf c021 3fbf 4a36 f7be
00000340: f089 29bf d3e2 283e 6d76 20bf 8fbf 033f
00000350: 4756 543f f9e2 8a3f d4da 443d f35a 063f
00000360: b56f 0e3f d267 fa3b 2352 c1be c252 2dbe
00000370: fcd0 4fbf ebac 49bf e327 b1be 6832 823d
00000380: 9878 c13f aac1 dc3e 0572 533f 7ea2 c03e
00000390: d16d 8cbf ee53 cb3c d87f 87bd cfe6 adbd
000003a0: 0d2b 49be fb85 fcbd 1994 493f 7cdc 81bd
000003b0: 0216 c33f 6959 633f c324 31be 5b95 1a3e
000003c0: 8927 9d3f d69f 4d3e 40be e03e 97b0 073d
000003d0: 5d85 31bf e24f 79bd bd2b 62bc ebe5 09ba
000003e0: f597 dabd 2740 b93e 9c56 cfbf a070 09c0
000003f0: 0769 3d3d 773a 4a3e 24d4 c8be 1f54 1d3e
-0.036823574 -0.059615817 -1.7710187 2.3460584 0.8068919 0.21098918 0.33351585 0.35309964
0.1231192 -3.2623975 0.8578851 1.7333066 -0.3494962 -0.17662857 0.38309592 0.2056285
-0.17611974 0.41398075 -0.19527036 0.9364014 -0.33975622 -0.51607186 -1.0652195 -0.27568832
-0.37161335 0.13179508 -0.33514214 -0.49753824 -0.98241514 0.8737894 0.10018954 0.64487755
-0.33244032 -0.79863644 -0.4576725 -1.0939217 0.14148764 -0.21576124 -0.26302668 0.035467837
-0.037254237 0.27600583 0.25393555 0.5524959 1.3752974 0.8829806 -0.4099608 -1.5627216
0.07217124 1.5434816 1.4000393 -0.67415655 -1.181785 0.50610626 -0.043012284 0.5948597
-0.4523911 -2.6104789 0.73033416 -0.6537533 -0.505945 0.3043122 -0.410032 -0.27272102
0.36627075 0.0003449206 0.0056095067 -0.15357496 -0.6523448 -0.4003609 0.47720596 1.5081604
0.06046366 0.5408095 0.67021984 1.181059 -0.8876415 -0.5632524 -0.19082849 0.07805814
-0.32806408 0.032381505 -0.94448876 -0.04677562 -0.09452302 -0.764081 -0.61873704 0.5897231
-0.12443981 0.27054906 0.1368739 0.9547241 -0.5891076 -0.7644255 -0.1627799 0.32723996
-0.194419 0.48701924 -1.7759025 0.79888314 1.2400134 0.12371375 0.123967774 -0.39276525
0.408024 -0.04236036 -2.6259437 0.52235186 -1.603463 -0.17859219 -0.2566552 -0.06481732
-0.094620205 -0.7399201 0.06985318 -0.0396979 -1.2994295 -0.8631185 -0.6499697 0.004669674
0.55932784 0.40940163 -0.4960606 -1.1082401 -0.55693424 -0.6749852 -0.12376564 0.35813016
-0.008619045 0.1399816 -0.2035297 -0.14988986 -0.6418005 -1.0960981 -0.96639645 0.44083536
-0.3716688 1.058225 0.5845313 -0.6474604 -1.6809717 -0.21093906 -0.4718015 1.0446076
-1.3090483 0.50696874 -1.0509557 0.23143598 0.045024842 0.6912638 -0.23983264 0.8123071
-1.0413383 -1.5024871 0.24688981 -1.294371 -0.5086776 -0.2730567 0.27950206 -0.10665812
0.59296274 0.30176952 0.0806429 0.375952 0.16235073 0.61770105 0.3144457 -0.8600658
-0.8386687 -0.35824946 -1.3120213 -0.5143226 0.6255473 0.8094944 0.23671885 -0.38511103
0.691335 1.4333513 -0.7492493 0.26183307 0.29321003 0.9386587 -0.63355196 0.29716387
-0.121160634 0.9785171 -0.078732654 -0.646193 0.93199664 -1.7745981 -0.17558016 0.021148518
0.86511457 -0.52142453 1.5978825 -0.46088454 -0.5540666 0.012609133 -0.088330306 -0.018460033
0.0876238 0.018812427 -0.90339816 -0.22175503 -0.29953557 -0.5509046 -0.74660873 -0.48283607
-0.662261 0.16492777 -0.62680703 0.5146417 0.8294415 1.0850517 0.048060253 0.5248253
0.556392 0.007641771 -0.37757978 -0.16926101 -0.8117826 -0.78779477 -0.34600744 0.063572705
1.5114927 0.43116504 0.82595855 0.37623972 -1.0971013 0.024820294 -0.06616181 -0.08491289
-0.19645329 -0.12330242 0.78741604 -0.06340882 1.5241091 0.88808304 -0.1729918 0.15096037
1.227769 0.20080504 0.4389515 0.033127394 -0.6934412 -0.060867198 -0.013804373 -0.00052603957
-0.10673515 0.36181757 -1.6198306 -2.147499 0.04624274 0.19748865 -0.3922435 0.15364121

fc1.bias f4 [32]
00000000: 67c6 443d 75a2 d13e cffd 873e ad5c 033f
00000010: a74c 243e 7ae0 b43e e327 b23f 1616 3f3f
00000020: f6a4 84be f5d4 cc3e 39d0 f8be c245 af3e
00000030: 1c77 7a3e 8554 fabd ae55 5dbf 52e4 8d3d
00000040: a5fe dbbd 57a4 8b3f c7ac 803f 2d83 3cbe
00000050: bd42 1ebf def5 2fbf 884b 81be 7249 363f
00000060: a5e0 1dbf eb4c b63e 146a 03bf c73e 6f3e
00000070: da9d da3c 8836 423b ad78 65bd 5def 9e3e
0.048040774 0.40944257 0.26560828 0.51313287 0.16044866 0.35327512 1.3918422 0.74643075
-0.25907105 0.40006223 -0.4859636 0.34232908 0.24459499 -0.12223152 -0.8645886 0.06928314
-0.10741929 1.0909528 1.0052727 -0.18409415 -0.61820585 -0.6873454 -0.25252938 0.7120582
-0.61670905 0.3560556 -0.5133374 0.23363791 0.026686598 0.0029634554 -0.05602329 0.31041995

fc2.weight f4 [32, 32]
00000000: d273 57bc 0c9d 48bf 30a4 a5bd 8d03 a33e
00000010: 841c 9a3c b9e6 a5be f1c5 983e 9813 81bf
00000020: 6dd6 8a3d cf5e 0c3f d8fd 0a3e 0854 563e
00000030: ed9e a03d d3a2 70be 85d8 cd3f 8984 533e
00000040: 787b 8b3e f081 ba3e 7c08 1b3f 6fbb f33f
00000050: 7265 18bd 4c7c e03f b839 04bf 4bfd 93be
00000060: 40c2 fc3f eef5 c0be c6b5 1d3f 5146 033f
00000070: 74e9 833f 45fc 46be 79fb 1e3f 3122 e93e
00000080: a297 6f3e 6fcc 1dbf fb2b 973e 6f39 503e
00000090: b868 ebbc 09f2 57be 1e6b 1b3e 4c29 85bf
000000a0: a701 313e e081 393f ec69 6b3d 4c94 6c3e
000000b0: a052 5d3e a6ee 78be b644 c13f 79e8 9d3e
000000c0: 6b82 973e 54e9 a03e d519 2f3f c1de bc3f
000000d0: af71 e6bd 4aeb c23f 8c99 a2be fd0b c4be
000000e0: 644e f13f 6419 4dbe bebd 563f a021 0f3f
000000f0: 0aff 903f 4b66 e6bd 2fa2 323f 120d ee3e
00000100: 37bb 53bd e31a 21bf 048c b3bd fd89 243e
00000110: d300 4d3e e861 54bf 094c a83e d339 83bf
00000120: 6eb5 653e 6db0 353e 99a7 f93e 925b 95bd
00000130: e0a0 7dbe d0fb 89be 81ff 5e3f 3d78 eb3e
00000140: 7419 053e daca 083f 3e98 243f 7233 933f
00000150: e014 633e c1ba d73f ef69 13bf b335 bfbe
00000160: f845 c03f 3c80 7abe 80fc 513f fb00 873e
00000170: 2440 8f3f 18a2 473e 7669 7a3f e613 f53e
00000180: 1ff6 563d 8fde 46bf 3a6a 3fbf 817b 4d3e
00000190: 99ac 0fbf 8a17 16be 81c2 9e3e 974c 77bf
000001a0: 39ab a33e 2178 b03e c891 8e3e 8301 b2be
000001b0: 0fe6 c83d 8b9c 6cbf 27ca a63f 48b3 6e3e
000001c0: 8383 993e f67a 8c3e 1449 683d da48 9b3f
000001d0: 3f9e a13d 6529 883f 89e1 aabe ede9 6abe
000001e0: e8ad f93f a442 1ebe 8980 e13e ceed da3e
000001f0: 9f19 773f a137 41bd 0a6c 0c3f 5c13 9c3e
00000200: e244 d0bd 7af0 5dbf f233 5e3d 65ac 8d3d
00000210: 4fc0 05bf 1356 81be f359 a63e 2438 7bbf
00000220: 8b05 a63e c4ce 063f b524 3f3e 023b 893e
00000230: 46c2 e4bd cefd 01bf d62e 8a3f dc37 4c3e
00000240: b0a2 773d e65c 023f 6958 0f3f f737 b93f
00000250: 1ca2 26be b6ef b73f e23c cfbe 4933 a5be
00000260: 832a 0740 caea 02bf 4621 b73e 1f9a e73e
00000270: 11e7 8d3f 53eb 26be 4dd2 3b3f 62a4 a23e
00000280: fee9 403d 1690 31bf 66ba 7cbd e861 a13e
00000290: da80 98bd 429c 39bf 9844 813e dc43 7cbf
000002a0: dd80 133e c8b3 e73e 209b aa3e 0d58 7bbd
000002b0: bbd4 dfbd 39ae febe 53f9 8f3f 2084 973e
000002c0: 0311 7e3d d7ab fd3e 7c8a 063f 019b bd3f
000002d0: 1ceb 953e 84da ca3f a46c ddbe 5810 93be
000002e0: 5e44 ef3f b29d 64be a057 553f 3c21 fd3e
000002f0: 5338 693f 2282 6c3e 0502 663f 8d74 953e
00000300: da3b a93d 708a 00bf b321 883e 92e7 3e3e
00000310: f9ed af3d f580 debe f452 f83d 53f3 7ebf
00000320: 593b d73d 98e1 fc3e 1033 8e3e bc03 653e
00000330: 62a4 343e bb89 91be 8473 a43f 4d9e 2e3e
00000340: 083f 163d f717 a13e 42cf 1e3f a136 c93f
00000350: a701 21be bf8e ca3f 0ea8 edbe 67e5 f3be
00000360: f4f8 0340 a2c0 5bbd e3aa 513f 04e9 d03e
00000370: 85ce 943f 1bd9 e4bd bed4 5f3f 45cc fd3e
00000380: c66a cb3e e9f1 593f cbdf d0be ca70 b03e
00000390: e012 883e 6cd3 81c0 4a28 973f 5c78 ea3f
000003a0: dfd9 c6bb 7395 b0bf 9e04 cbbf acaf ff3d
000003b0: 8ef3 91c0 ba19 9340 fd38 acbf 4af4 f5be
000003c0: 56f7 07bf 053f 793f 9165 c63e 22ea a1bf
000003d0: a115 d8bf 00e3 9cbf e603 903f 4caa 683f
000003e0: 163b 14bf dc4c 0bc0 9618 f23d e3a5 53bf
000003f0: e32b 35bf 0100 16bf 7bb6 59bf 5694 e0be
-0.013150172 -0.78364635 -0.08087957 0.31838647 0.018812425 -0.3240259 0.29838517 -1.0084105
0.0677918 0.54832166 0.13573396 0.20930493 0.07842813 -0.23499613 1.6081702 0.20656027
0.27242637 0.3642726 0.6055982 1.9041575 -0.03720612 1.7537932 -0.5165057 -0.28904185
1.974678 -0.3768763 0.6160549 0.5127917 1.0305619 -0.1943217 0.62102467 0.45533898
0.23397687 -0.61640066 0.29525742 0.20334409 -0.028736457 -0.21088423 0.1517758 -1.0403228
0.17285787 0.724638 0.05747406 0.23103446 0.2161355 -0.24309787 1.5099094 0.30841425
0.2959169 0.31428015 0.6839879 1.4755479 -0.11252152 1.5228055 -0.31757772 -0.38290396
1.8852048 -0.20029217 0.83883274 0.5591068 1.1327832 -0.112499796 0.6977872 0.46494347
-0.051692214 -0.6293165 -0.0876694 0.16068263 0.20019846 -0.82961893 0.3287051 -1.0252022
0.22432491 0.17743082 0.4876068 -0.07292856 -0.247684 -0.2694993 0.8710862 0.45990172
0.12997991 0.53434527 0.64294803 1.1500075 0.22175932 1.6853868 -0.57583517 -0.37345657
1.5021353 -0.2446298 0.8202591 0.26367936 1.1191449 0.19495428 0.9781717 0.47866744
0.052480813 -0.7768335 -0.74771464 0.20066644 -0.5612274 -0.14657417 0.3100777 -0.9660124
0.3196657 0.3446665 0.27845597 -0.34766778 0.09809505 -0.92426366 1.3030442 0.23310578
0.29983148 0.27437562 0.056710318 1.2131608 0.07891511 1.0637633 -0.33375195 -0.22940798
1.9506197 -0.15455109 0.44043377 0.42759556 0.9652347 -0.047172192 0.54852355 0.3048352
-0.10169388 -0.86695063 0.054248758 0.06917647 -0.52246565 -0.25260982 0.324905 -0.9813254
0.32426104 0.5265925 0.18666346 0.26802832 -0.11169867 -0.507779 1.0795543 0.19943184
0.060457885 0.50923 0.5599428 1.4470204 -0.16272777 1.4370029 -0.40476137 -0.3226569
2.1119697 -0.5113951 0.35767573 0.45234773 1.1086141 -0.16300707 0.7336777 0.3176604
0.047098152 -0.6936048 -0.0617012 0.3152001 -0.074464515 -0.72504056 0.25247645 -0.98541045
0.14404626 0.4525435 0.33321476 -0.06136327 -0.10929247 -0.49742296 1.1247963 0.2959299
0.062027942 0.49545166 0.5255506 1.4812928 0.29280937 1.5847936 -0.4324695 -0.28723407
1.8692739 -0.22325781 0.8333683 0.49439418 0.9110157 0.23096517 0.8984683 0.29190484
0.08263369 -0.5021124 0.2658821 0.18643025 0.085903116 -0.4345776 0.12125197 -0.99590033
0.105093665 0.49390864 0.27773333 0.22364706 0.17640832 -0.28425393 1.2847753 0.17052574
0.036681205 0.31463596 0.62035 1.5719796 -0.15723287 1.5824813 -0.46417278 -0.47635958
2.06207 -0.053650506 0.8190138 0.40802777 1.1625525 -0.11174222 0.87433994 0.49569908
0.397299 0.8513475 -0.4079574 0.3446105 0.265769 -4.0570583 1.180917 1.8317981
-0.0060684527 -1.3795608 -1.5860784 0.124846786 -4.560981 4.5968904 -1.3454891 -0.4803794
-0.5311178 0.97361785 0.38749364 -1.2649577 -1.6881601 -1.2256775 1.125119 0.9088485
-0.5790266 -2.1765661 0.11821096 -0.82675 -0.7077009 -0.58593756 -0.8504407 -0.4386317

fc2.bias f4 [32]
00000000: 67d9 a8be 5502 dcbe be5f 2fbe ab11 1fbd
00000010: 598c 31be 64e0 23be 28de 3bbe ac05 263f
00000020: 54ea 67be 47da 9bbc 3b6d b43d c676 cb3c
00000030: 399d 9f3e 9732 93be d8b4 93bd 90ae d6be
00000040: 3172 113e 017c 88be b54c 1cbe 71e7 c93f
00000050: bddd 443f d691 16be 623c f9be e9ac 2f3f
00000060: 9e9d bdbc 01f2 6f3e 9d51 1f3f 99e1 8f3f
00000070: 8b5d a13b a932 6cbd ef28 64be 8ffb a73f
-0.32978365 -0.4297053 -0.17126366 -0.03883521 -0.17338695 -0.16003567 -0.18346465 0.64852405
-0.22647983 -0.019024981 0.088098966 0.024836909 0.3117464 -0.28749534 -0.072122276 -0.41930056
0.14203717 -0.26657107 -0.15263636 1.5773755 0.76900846 -0.1470407 -0.4867888 0.68623215
-0.023146447 0.23432161 0.62233907 1.1240722 0.0049244813 -0.0576655 -0.2228124 1.3123645

fc3.weight f4 [4, 32]
00000000: 7808 0bbf 9db8 ffbe 5491 17bf bcfd 2cbf
00000010: fbb1 16bf ce3f 0fbf 7d27 00bf 97e0 6740
00000020: 0727 07bf 0ff2 15bf 7d7f 8fbe 014a a93f
00000030: d68a bebe 0270 cabe 06db 3abf 66c7 28bf
00000040: 43a6 7fbd 2b52 d1be c688 ebbd f70b 4140
00000050: 10cc 2740 8593 edbe 8b0c 0dbe 41e0 87be
00000060: a525 0dbf 3392 f4bf a73c 2c40 1ee9 7d40
00000070: 3cc4 16bf a746 73bf 68f5 00bf ff65 e33f
00000080: e0ab d8be 63bd fcbe 60de 49bf 85d8 c8be
00000090: 67b4 a8be e3e0 14bf 50f0 07bf fc1c 6b40
000000a0: 392e 29bf 4188 66bf 1c53 03bf edb6 0b40
000000b0: e89a e9be 052b 20bf cfff 0bbf 8e7a 19bf
000000c0: 6dda 2fbf 43dd f3be ac88 e93d cc61 3040
000000d0: 9ad6 2240 83af d1be eb30 56bf 70e1 863f
000000e0: d7f6 d7be ad27 b7bf 0f4d 0240 c46d 7240
000000f0: c12e b13d 5efa adbf d77e 45bf fd68 e93f
00000100: 5917 2cbf 89be 4ebf 665f bebe 91d1 07bf
00000110: 86ee 07bf 1c7a eabe 8cd0 2fbf 04fc 5f40
00000120: b45f c2be 8350 25be 093e af3e 1aad 8cbe
00000130: d17b 79bf 08cb 3dbf 1c8e 1abf a2f4 26bf
00000140: e262 63bf 5035 41bf fce7 afbd 091b 2d40
00000150: 7942 3340 f94f 38bf 9e34 5abf 5c7a 533f
00000160: 2e88 a8be 74e1 783f 35a6 3340 93d7 7040
00000170: f47c 18bf cd72 3d3e a64b 0cbf 8956 f73f
00000180: 5c9d 37bf 7676 eabe 6cbf 37bf 8902 31bf
00000190: 85d2 5cbf 0fc2 2dbf fb78 fabe 858b 5840
000001a0: 9e89 e4be 2e49 d9be 3131 763f b993 bd3e
000001b0: abc5 44bf 5479 a83d dc9b 2dbf fba3 fabe
000001c0: 5780 a83e 80de aabe f6bb 073e 4cfc 3d40
000001d0: ccfb 2f40 cc47 32bf 0246 04bf a7b1 3cbf
000001e0: 34db 68bf 926b 0dbf ea88 2040 d66f 8c40
000001f0: fd51 63bf d6fb e7be f46c 1bbf a1f4 e23f
-0.543098 -0.49945536 -0.5920613 -0.6757467 -0.58865327 -0.55956733 -0.50060254 3.6230829
-0.52793926 -0.5857248 -0.28026953 1.3225709 -0.37215298 -0.3953858 -0.72990453 -0.6592926
-0.06241442 -0.40883002 -0.11500697 3.0163553 2.62183 -0.4640161 -0.13774316 -0.2653828
-0.55135566 -1.9107116 2.691202 3.9673533 -0.5889318 -0.9502968 -0.5037446 1.7765502
-0.4231863 -0.4936324 -0.7885494 -0.3922769 -0.32950136 -0.5815565 -0.5310106 3.673644
-0.66086155 -0.90051657 -0.5129869 2.18304 -0.45625997 -0.6256564 -0.5468721 -0.5995263
-0.68692666 -0.47629747 0.11403021 2.755969 2.5443482 -0.40954217 -0.8366839 1.0537548
-0.4218051 -1.4308983 2.0359533 3.7879496 0.08651496 -1.3592031 -0.7714667 1.8235165
-0.67223126 -0.80759484 -0.37182158 -0.5305415 -0.5309833 -0.45796287 -0.6867759 3.4997568
-0.3796364 -0.16143994 0.34227017 -0.27475816 -0.97454554 -0.74137926 -0.6037309 -0.6521703
-0.8882276 -0.75471973 -0.085891694 2.704775 2.8009322 -0.7199703 -0.8523654 0.8260858
-0.32916397 0.97219014 2.8070195 3.7631576 -0.59565663 0.18500824 -0.5480293 1.9323283
-0.71724486 -0.45793504 -0.7177646 -0.69144493 -0.8625873 -0.67874235 -0.48920426 3.3835156
-0.44636244 -0.42438644 0.9616881 0.37026766 -0.7686412 0.082262665 -0.6781595 -0.48953232
0.32910416 -0.3337288 0.13255295 2.968524 2.7497435 -0.69640803 -0.51669323 -0.73708576
-0.9095948 -0.55242264 2.5083566 4.388652 -0.8879698 -0.45309323 -0.60713124 1.7730905

fc3.bias f4 [4]
00000000: 1293 8a3f 5f4f a3be 2577 943e 9561 073f
1.0826132 -0.31896493 0.2899715 0.52883273
