src/models/evaluation2_DQN_policy.pth (torch, 8235 bytes, 6 tensors)

fc1.weight f4 [32, 8]
0	0x3f1b6a7d	0.60709363
1	0xbedf8db5	-0.436628
2	0x3ef30fd8	0.47473025
3	0xbf352f2a	-0.7077509
4	0xbf0eaba0	-0.5573063
5	0xbee60845	-0.44928184
6	0xbda4dfeb	-0.080505215
7	0x3de25962	0.11052205
8	0xbf06cae5	-0.5265334
9	0xbf7f4912	-0.9972087
10	0x3f90c385	1.1309668
11	0xbe9f5d1a	-0.31125718
12	0xbf747cfa	-0.955032
13	0xbf1ecafd	-0.62028486
14	0x3f1707d6	0.5899633
15	0x3eb5cc20	0.35507298
16	0xbf4ddcbd	-0.80414945
17	0xbe55f391	-0.20893694
18	0x3e770523	0.24123053
19	0xbe4c7867	-0.19967805
20	0x3ebe9850	0.3722558
21	0x3f706ee8	0.9391923
22	0x3e4f1bb4	0.20225412
23	0xbf226753	-0.6343891
24	0x3f2cadb7	0.6745257
25	0xbf3544ad	-0.70807916
26	0x3e60e45c	0.21962112
27	0xbfa37719	-1.2770721
28	0x3e81975f	0.253108
29	0x3e14f31b	0.14545862
30	0x3e21e082	0.15808299
31	0x3d9f5c60	0.07781291
32	0x3d526a35	0.05137082
33	0xbf3e5dcc	-0.7436187
34	0x3ed3e128	0.41382718
35	0xbf31058c	-0.6914909
36	0xbebd8c62	-0.37021166
37	0xbe1c7a56	-0.15281042
38	0x3e1e6e8e	0.15471861
39	0x3e3b1b60	0.18272161
40	0x3ef2fb25	0.47457233
41	0x3dec80df	0.11548018
42	0x3ec166a6	0.37773627
43	0xbe5e0fd5	-0.21685727
44	0xbe9f1f3b	-0.31078514
45	0xbf84ccfe	-1.0375059
46	0xbd14270d	-0.036170054
47	0x3e83d525	0.25748554
48	0x3f0550f4	0.5207665
49	0xbded2f01	-0.11581231
50	0x3e88853b	0.26664147
51	0xbecaba59	-0.39595297
52	0xbe91f778	-0.28509116
53	0xbf4acb44	-0.7921641
54	0xbcb839b1	-0.022488447
55	0xbdf3ce9b	-0.11904641
56	0x3f159f65	0.5844634
57	0x3d1433cd	0.036182214
58	0x3ee741a4	0.45167267
59	0xbf011756	-0.5042623
60	0xbe5e46d4	-0.21706706
61	0xbf49a183	-0.7876207
62	0xbe158f6d	-0.14605494
63	0xbdfb0c54	-0.12258211
64	0xbe80cb83	-0.25155267
65	0xbf46691c	-0.77504134
66	0xbe4f7d37	-0.2026261
67	0xbf1e6ee9	-0.61887985
68	0x3f0e81fd	0.55667096
69	0x3ded0fd9	0.11575288
70	0x3e452e4e	0.19255945
71	0x3c80e4b5	0.015734056
72	0xbdaf2c09	-0.08553321
73	0xbf6fab57	-0.9362082
74	0xbf225977	-0.6341776
75	0xbf419fb1	-0.75634295
76	0x3f1ee399	0.62066036
77	0x3f0b1fbe	0.5434531
78	0x3e77b386	0.24189577
79	0x3e30d1fa	0.172676
80	0xbf6eedfe	-0.933319
81	0x3c265488	0.01015199
82	0xbe9b484f	-0.30328605
83	0xbecdb62b	-0.40178046
84	0xbdd33786	-0.10313325
85	0xbf923512	-1.1422446
86	0xbd5d62a6	-0.054049157
87	0x3e28efd6	0.1649774
88	0x3eba359a	0.3636902
89	0xbf69e012	-0.9135753
90	0xbbd5a900	-0.0065203905
91	0xbf65e3d7	-0.8980078
92	0x3eb9d68a	0.36296493
93	0x3d75528b	0.059893172
94	0x3e3a921b	0.18219797
95	0x3d9a4cef	0.07534205
96	0xbe0905ae	-0.13381073
97	0xbcb622c3	-0.022233373
98	0x3ddfd1fd	0.10928724
99	0xbeacaf82	-0.33727652
100	0xc011c0fe	-2.2774043
101	0x3e81ebdb	0.25375256
102	0x3f166fe9	0.5876451
103	0x3ee44491	0.44583562
104	0xbf622441	-0.8833657
105	0xbe33f1f4	-0.17572767
106	0xbf893564	-1.0719419
107	0x3de190f4	0.11013976
108	0x3f46c9a9	0.7765146
109	0xbe405be1	-0.18785049
110	0xbe8f7d65	-0.28025356
111	0x3b6c7e40	0.0036085993
112	0x3f2418af	0.64100164
113	0x3ee14fb6	0.44006127
114	0x3e8d7a73	0.27632484
115	0xbf3dbfe0	-0.74120903
116	0xbe3e1b8a	-0.18565193
117	0x3f9a89b3	1.2073272
118	0x3edd351b	0.4320458
119	0x3da1f803	0.079086326
120	0x3efc48fe	0.4927444
121	0x3f0cb586	0.5496448
122	0x3f2ad57d	0.6673201
123	0x3f516772	0.8179847
124	0xbe9c4721	-0.30523017
125	0xbf1ab789	-0.604363
126	0xbe125ff2	-0.14294413
127	0xbf397d91	-0.72457224
128	0x3f62d788	0.88610125
129	0xbf26bac6	-0.65128744
130	0x3fade9a6	1.3586929
131	0xbf0ac43f	-0.542057
132	0x3d665167	0.056229975
133	0x3c9bc411	0.01901439
134	0x3e0b6d7b	0.13615982
135	0xbe3f8bd9	-0.18705691
136	0xbe477526	-0.19478282
137	0xbdbce1be	-0.092227444
138	0x3f6e4123	0.9306814
139	0xc0090ac2	-2.1412816
140	0x3fa3333b	1.2750009
141	0xbf79fef1	-0.97654635
142	0xbea72028	-0.3264172
143	0xbeda61b3	-0.42652664
144	0x3f3a27a1	0.7271672
145	0xbebf2f72	-0.37340885
146	0x3eeea002	0.4660645
147	0xbf3089ee	-0.68960464
148	0xbef09f90	-0.46996737
149	0xbee0b860	-0.43890667
150	0x3d8f59d2	0.06999554
151	0x3cb20701	0.021731855
152	0xbd871f5e	-0.0659778
153	0x3e31fa6a	0.17380682
154	0x3f213f26	0.6298698
155	0xbcbdfc61	-0.023191633
156	0xbea101ed	-0.31446782
157	0x3faea091	1.3642751
158	0x3f0b53d0	0.5442476
159	0x3ea8e41a	0.32986528
160	0xbca25d85	-0.019819984
161	0xbf0fa238	-0.561069
162	0xbe5f0ec9	-0.21782984
163	0xbf428664	-0.75986314
164	0x3e5826d6	0.21108565
165	0x3fae553d	1.3619763
166	0x3e6db9b8	0.23215377
167	0xbf0c7550	-0.54866505
168	0x3ecfa015	0.4055182
169	0xbf17219d	-0.59035665
170	0x3ea1dedb	0.31615338
171	0xbf9744b9	-1.1817847
172	0x3e50fc98	0.20408857
173	0x3de618c1	0.1123519
174	0x3d9f74bf	0.077859394
175	0xbca3e11a	-0.020004798
176	0xbf1f6040	-0.6225624
177	0xbe8f7f3b	-0.28026757
178	0xbdb8e494	-0.09027973
179	0xbee7076f	-0.4512286
180	0x3edd7bb9	0.43258455
181	0x3f180e39	0.593967
182	0xbd7766a0	-0.060400605
183	0x3c4eb8fa	0.012617344
184	0x3e13b391	0.14423968
185	0x3f3e5b71	0.7435828
186	0x3f00b86b	0.502814
187	0x3f3ca1bd	0.73684293
188	0xbf0853d2	-0.532529
189	0xbf50cf94	-0.8156674
190	0xbeb8c9d7	-0.36091492
191	0xbef576b1	-0.47942117
192	0xbf77c33a	-0.9678227
193	0x3daf4af4	0.08559218
194	0xbf27c0cf	-0.6552858
195	0xbf152228	-0.58255243
196	0xbe95b04b	-0.29236063
197	0xbf1cd8ac	-0.61268115
198	0xbe8980e2	-0.26856142
199	0x3e30d263	0.17267756
200	0xbefc10d6	-0.49231595
201	0x3f9d0f7e	1.2270353
202	0x3ef9f387	0.4881861
203	0xbfbdc0c1	-1.4824449
204	0x3ea88049	0.32910374
205	0x3efd926f	0.49525782
206	0x3f80d04d	1.0063568
207	0xbebb3512	-0.36563927
208	0xbe4174bd	-0.18892188
209	0xbcb33d8d	-0.021879936
210	0x3e90d933	0.2829071
211	0xbefef719	-0.49797896
212	0x3eba5642	0.36393934
213	0x3f85c81a	1.0451691
214	0x3f1989bd	0.59975797
215	0xbe2cafcf	-0.1686394
216	0x3e76b507	0.24092494
217	0xbf1e66f2	-0.6187583
218	0x3f3479b1	0.70498186
219	0xbf39403c	-0.7236364
220	0xbf125164	-0.5715544
221	0xbead4fd0	-0.33849955
222	0x3e35ed3e	0.17766282
223	0x3e5f0c67	0.21782075
224	0x3d9ba98c	0.07600698
225	0x3e2ec3af	0.17066835
226	0x3e2e742a	0.170365
227	0x3eab2223	0.33424482
228	0xbf02610d	-0.5092934
229	0xbf3675d9	-0.7127357
230	0x3dc6017c	0.09668252
231	0xbf95254e	-1.165201
232	0xbf2f45e2	-0.6846601
233	0x3eeec0a9	0.46631363
234	0xbf23d400	-0.6399536
235	0x3f2d4330	0.67680645
236	0x3f90c1db	1.130916
237	0x3d64f731	0.055899803
238	0xbdb59b3b	-0.088674985
239	0xbecd2c87	-0.40073034
240	0x3f1fad40	0.62373734
241	0x3f90a8b1	1.130148
242	0xbf5f89c9	-0.8731962
243	0xbef73b80	-0.48287582
244	0x3fe2b068	1.7710085
245	0x3db9f2a6	0.09079485
246	0x3e86182e	0.26190323
247	0x3ea0ffa0	0.31445026
248	0xbf3eb8f8	-0.7450099
249	0xbe515c9f	-0.20445488
250	0xbf0f7bb6	-0.5604814
251	0xbe8c6b25	-0.27425495
252	0x3f1efc23	0.6210348
253	0x3ec8ba9a	0.39204866
254	0x3ed3ce7c	0.41368473
255	0x3f0b0084	0.5429766

fc1.bias f4 [32]
0	0xbf1a603f	-0.6030311
1	0x3ea157fd	0.31512442
2	0x3eb998de	0.3624944
3	0xbe830bff	-0.2559509
4	0xbeaf2412	-0.34207207
5	0xbf11b4dc	-0.56916595
6	0xbeeb4e3b	-0.45958123
7	0xbee3eaa4	-0.44514954
8	0xbe72e863	-0.23721461
9	0xbe8c44b9	-0.2739618
10	0x3ea696e1	0.32536986
11	0xbe802e9b	-0.25035557
12	0xbd25fa0a	-0.04052166
13	0x3ede9ef5	0.4348065
14	0x3f67977b	0.90465516
15	0x3e7cf212	0.24701717
16	0xbe5c8b52	-0.21537521
17	0xbd6ffcb9	-0.058590624
18	0xbf1196ac	-0.5687053
19	0xbf07a17a	-0.5298077
20	0xbe72722e	-0.23676369
21	0xbe1f3790	-0.15548539
22	0xbd67136f	-0.056415018
23	0x3e55cc53	0.20878725
24	0x3eb478f4	0.3524853
25	0x3fad8f29	1.3559314
26	0x3e8b61a1	0.27222922
27	0xbebeead4	-0.37288535
28	0x3ea2748d	0.31729546
29	0x3f02006d	0.507819
30	0x3eaacb6c	0.33358324
31	0xbed9a4fa	-0.4250868

fc2.weight f4 [32, 32]
0	0xbe4a2afe	-0.19742963
1	0x3f1c5562	0.61067784
2	0xbf0cfc1c	-0.5507219
3	0xbf4cf217	-0.800569
4	0xbcdfde2a	-0.027327616
5	0x3e6e06b4	0.23244745
6	0xbf0a8cd8	-0.5412116
7	0xbf1514a6	-0.5823463
8	0xbdcc12b5	-0.099645056
9	0xbf7d2202	-0.98880017
10	0x3d08a1cc	0.033357427
11	0xbf0a0dc3	-0.5392725
12	0x3f36d275	0.7141488
13	0x3eaa7443	0.33291826
14	0x3f865202	1.0493777
15	0x3eea642e	0.45779556
16	0xbf140015	-0.57812625
17	0x3fd48415	1.6602808
18	0xbebe30b0	-0.3714652
19	0xbfc8509b	-1.5649599
20	0xc070e87f	-3.7641904
21	0xbf634949	-0.887837
22	0xbf0b713b	-0.5446965
23	0xbe4127e6	-0.18862876
24	0xbec93a14	-0.39302123
25	0x3f1a6e22	0.603243
26	0xbf687dbd	-0.9081686
27	0xbdc99dfe	-0.09844588
28	0xbe04e7f5	-0.1297911
29	0x3f0ea4bb	0.5572011
30	0x3f0c01fd	0.54690534
31	0x3ecd9043	0.40149125
32	0x3f0b0093	0.5429775
33	0xbe86ca09	-0.26326016
34	0x3dd11d76	0.10210697
35	0x3ee71f42	0.45141035
36	0x3eae3af4	0.34029353
37	0x3e50ecb5	0.20402797
38	0x3e93e1e0	0.28883266
39	0x3e8ad384	0.271145
40	0x3eb836ca	0.359793
41	0x3e9d3f93	0.30712566
42	0x3db30aa1	0.08742262
43	0x3f58d9e7	0.8470749
44	0xbe9b6dd4	-0.3035723
45	0x3f0ebee3	0.5576002
46	0xbe75013f	-0.23926257
47	0x3ea6f5ab	0.32609305
48	0x3f989e71	1.1923352
49	0xbf89a37d	-1.0753018
50	0x3f235ea7	0.63816303
51	0x3b16a740	0.0022987872
52	0x3caed20a	0.021340389
53	0x3f451f2d	0.77000695
54	0x3b9402a0	0.0045169145
55	0x3e840132	0.25782162
56	0x3e24c16a	0.16089407
57	0x3d07a079	0.033112023
58	0x3eaef0ff	0.3416824
59	0x3ee5a041	0.44848827
60	0xbdac18f0	-0.08403194
61	0x3efd8024	0.49511826
62	0x3f13b182	0.5769273
63	0x3e999e9b	0.3000382
64	0xbfd016d8	-1.6256971
65	0x3ea3665b	0.3191403
66	0xc0047bbd	-2.0700524
67	0xbf8990c0	-1.0747299
68	0xbf1d2860	-0.6138973
69	0xbf857d9e	-1.042896
70	0xbf0d7b3e	-0.5526618
71	0xbfa71077	-1.30519
72	0xbf851845	-1.0398031
73	0xbfcbd9af	-1.5925807
74	0xc007c604	-2.121461
75	0xbfa3a0d7	-1.278346
76	0x3f8b1469	1.0865604
77	0xbf156a16	-0.58365
78	0x3fe1f77e	1.7653654
79	0xbeea1a51	-0.45723203
80	0xbf60f2db	-0.8787057
81	0x404c283a	3.1899552
82	0xbf95c342	-1.1700213
83	0xc0570fd0	-3.36034
84	0xc06c2539	-3.689772
85	0xbf9f9a5c	-1.2468982
86	0xbf3f9977	-0.74843544
87	0xbf293334	-0.66093755
88	0xbf7a4c03	-0.97772235
89	0x3fd781bd	1.6836468
90	0xbfc558a0	-1.5417671
91	0xbee76fcd	-0.45202485
92	0xbe85a1f7	-0.26100132
93	0xbf5ebbdb	-0.87005395
94	0x3f767b8e	0.9628228
95	0xbfa60565	-1.2970396
96	0x3f792556	0.97322595
97	0x3dfc7324	0.12326649
98	0x3e48845b	0.1958174
99	0x3f1963b4	0.5991776
100	0x3ec4d886	0.38446444
101	0x3ed5929d	0.4171342
102	0x3f05a242	0.5220071
103	0x3f129eee	0.5727376
104	0x3e905ece	0.2819733
105	0x3eae5c38	0.34054732
106	0x3ea1ccce	0.31601566
107	0x3f2154cf	0.6302003
108	0xbeb896c4	-0.36052525
109	0x3f0e1982	0.5550767
110	0xbecf652b	-0.40506873
111	0x3eb137c5	0.3461286
112	0x3f8efa27	1.117009
113	0xbf496697	-0.78672165
114	0x3f514044	0.81738687
115	0xbb1eae9a	-0.0024212957
116	0xbda87fe7	-0.082275204
117	0x3f326724	0.6968863
118	0x3cf48381	0.029847862
119	0x3f014226	0.5049156
120	0x3eaffd99	0.34373167
121	0x3e01336d	0.12617274
122	0x3efe7ce4	0.4970466
123	0x3f16be2c	0.5888393
124	0x3ead2805	0.33819595
125	0x3f362712	0.71153367
126	0x3f1c039f	0.60943025
127	0x3ec4c75c	0.3843335
128	0x3f521c69	0.820746
129	0xbbe6d503	-0.007044436
130	0xbdee8950	-0.11647284
131	0x3f0ff748	0.56236696
132	0x3e8d88cc	0.2764343
133	0x3ebe75e1	0.3719931
134	0x3e9ea50e	0.30985302
135	0x3e620e74	0.22075826
136	0x3ec41f5b	0.38305172
137	0x3e3e85bf	0.18605708
138	0x3da0089c	0.07814142
139	0x3f17a5b9	0.5923725
140	0xbf2700be	-0.6523551
141	0x3def9c2e	0.11699711
142	0xbe7da252	-0.24768952
143	0x3f615f96	0.8803648
144	0x3f5c83cd	0.8613861
145	0xbefec0de	-0.4975652
146	0x3f338a38	0.7013278
147	0xbd4b5c71	-0.049648706
148	0x3e136415	0.14393647
149	0x3ef0cd87	0.47031805
150	0xbe80ba42	-0.25142103
151	0x3f10e468	0.5659852
152	0xbe627617	-0.2211536
153	0xbe09e60f	-0.13466667
154	0x3e7775df	0.24166058
155	0x3e9ca3fd	0.30593863
156	0x3e57a467	0.21058808
157	0x3e4323ee	0.19056675
158	0x3eaa557d	0.33268347
159	0x3f068c17	0.5255751
160	0x3f6f47a9	0.9346872
161	0xbdcb87bd	-0.099379994
162	0x3e04d274	0.12970906
163	0x3f4c0de6	0.7970871
164	0x3e975819	0.295594
165	0x3f10d586	0.5657581
166	0x3ea78757	0.32720444
167	0x3f06917b	0.52565736
168	0x3f14652a	0.57966864
169	0x3eed935e	0.46401495
170	0x3ec1e915	0.3787314
171	0x3f34da72	0.7064582
172	0xbd66258b	-0.056188148
173	0x3e52c5a2	0.20583203
174	0xbe8b8990	-0.2725339
175	0x3f6be5a4	0.9214728
176	0x3f7627ce	0.9615449
177	0xbf825197	-1.0181149
178	0x3f4a5c85	0.79047424
179	0x3ca16bc5	0.019704709
180	0x3e54dc91	0.20787264
181	0x3ef08096	0.46973103
182	0xbc0ff58c	-0.00878657
183	0x3f51f8fc	0.82020545
184	0xbd6f2b27	-0.058390763
185	0xbe091427	-0.13386594
186	0x3e820510	0.25394487
187	0x3f44dc0a	0.7689825
188	0x3edafc9d	0.42770854
189	0x3ee09ac0	0.43868065
190	0x3e5b4464	0.21412808
191	0x3f09e4fc	0.5386503
192	0x3f1da751	0.6158343
193	0x3cd5a128	0.026077822
194	0x3e5d0608	0.21584332
195	0x3f52a8a0	0.8228855
196	0x3ecbbd61	0.39792922
197	0x3ea402e6	0.3203346
198	0x3ef1db8f	0.47237822
199	0x3f2c7a76	0.6737436
200	0x3efb93a6	0.49136084
201	0x3ed0b692	0.4076429
202	0x3ed74523	0.42044935
203	0x3f369bf4	0.71331716
204	0xbeb70f59	-0.35753897
205	0x3f1dead7	0.6168646
206	0xbf05403c	-0.5205114
207	0x3ea54e6f	0.32286403
208	0x3f5d71ea	0.86501944
209	0xbf59d619	-0.8509231
210	0x3f801a31	1.0007993
211	0x3d2aff49	0.041747365
212	0xbdeb2343	-0.11481335
213	0x3f31b471	0.69415957
214	0x3e565abf	0.20933054
215	0x3f28a431	0.65875536
216	0x3eacbfa7	0.3373997
217	0x3e762bd7	0.24040161
218	0x3e8b38ad	0.27191678
219	0x3f00944e	0.50226295
220	0x3ec0ff68	0.3769486
221	0x3ec7b007	0.39001486
222	0x3ef1a814	0.47198546
223	0x3e90d549	0.28287724
224	0x3f545447	0.829411
225	0x3de0c69a	0.1097538
226	0x3dfe50aa	0.12417729
227	0x3f3d7a79	0.74015003
228	0x3ee2d997	0.44306633
229	0x3e9a93a2	0.3019076
230	0x3f46b5a8	0.77620935
231	0x3f36968b	0.7132346
232	0x3f33d236	0.7024263
233	0x3f0e3fd3	0.5556614
234	0x3f0c0d22	0.5470754
235	0x3f5c4dd4	0.86056256
236	0xbe6e6fc2	-0.2328482
237	0x3ea0466d	0.3130373
238	0xbf02521c	-0.5090654
239	0x3ef023c7	0.46902296
240	0x3f73befa	0.9521328
241	0xbf792a44	-0.9733012
242	0x3f806940	1.003212
243	0x3d2802b3	0.0410182
244	0x3e83842a	0.2568677
245	0x3f5e0946	0.867329
246	0x3e3c9535	0.18416293
247	0x3f2a9277	0.6662974
248	0x3ee7569d	0.45183268
249	0x3e519223	0.20465903
250	0x3ee7eca8	0.45297742
251	0x3f019dbc	0.5063131
252	0x3ef4a1ac	0.47779596
253	0x3f1061ff	0.5639953
254	0x3e9c1dfa	0.3049162
255	0x3e979212	0.2960363

fc2.bias f4 [32]
0	0x3fc6efb0	1.5541897
1	0x3d8d5b0f	0.06902134
2	0x3f8d58e4	1.1042752
3	0x3d5c5abd	0.053797472
4	0x3ea27af7	0.3173444
5	0x3d38798f	0.045037802
6	0x3d70451c	0.058659658
7	0xbd5f211c	-0.054474935
8	0xbd8d9c1c	-0.06914541
9	0x3e856f2a	0.26061374
10	0x3e1faa82	0.15592387
11	0x3bcacb09	0.0061887545
12	0xbd29062e	-0.04126566
13	0x3e692349	0.22767366
14	0x3df779a7	0.1208375
15	0x3f16735a	0.5876976
16	0xbe02e0d6	-0.1278108
17	0xbe305e11	-0.17223383
18	0x3dc30af4	0.095235735
19	0x3dc96eec	0.0983561
20	0x3d37e18d	0.044892836
21	0xbf4ccd0b	-0.8000037
22	0x3e22a9e9	0.15885128
23	0x3d7828f4	0.06058593
24	0x3cf60e53	0.030036127
25	0xbd883ca3	-0.066521905
26	0x3e6a8856	0.2290357
27	0xbd99e6d9	-0.07514734
28	0x3e63fd43	0.2226458
29	0x3fbcd818	1.4753447
30	0xbe664fa4	-0.22491318
31	0x3e26eead	0.16301985

fc3.weight f4 [4, 32]
0	0x40083c21	2.12867
1	0xbf135dbc	-0.575649
2	0x4058460b	3.379275
3	0xbee60430	-0.4492507
4	0xbf003556	-0.50081384
5	0xbea17061	-0.3153105
6	0xbefa6b91	-0.48910192
7	0xbf1781d5	-0.5918248
8	0xbbaa6638	-0.0052001737
9	0xbf40fefa	-0.75389063
10	0xbed71af1	-0.42012742
11	0xbe87605e	-0.2644071
12	0xbebd624f	-0.36989066
13	0x3db62f75	0.088957705
14	0xbf18b2d1	-0.5964785
15	0xbec180ef	-0.3779368
16	0x3db4a499	0.08820457
17	0xbf042de1	-0.51632506
18	0xbecbdbdd	-0.3981618
19	0xbebd51be	-0.36976427
20	0xbe84d1d3	-0.25941333
21	0xbeaba6ca	-0.33525687
22	0xbf07103d	-0.5275915
23	0xbf0c7d9d	-0.5487917
24	0xbeab9031	-0.33508447
25	0xbecf4edd	-0.40489855
26	0x3f5bb0a8	0.8581643
27	0xbeae7e76	-0.34080857
28	0xbef365fc	-0.47538745
29	0x402cd2d1	2.7003672
30	0x3d77db31	0.06051177
31	0x3d9b1390	0.075720906
32	0x40160a07	2.344362
33	0xbec872f0	-0.3915019
34	0x402d7467	2.7102296
35	0xbf276cad	-0.654002
36	0xbe5b14ea	-0.21394697
37	0xbe953696	-0.29143208
38	0xbf1307db	-0.5743386
39	0xbee49c0b	-0.446503
40	0x3f5f255c	0.8716638
41	0xbe826e4b	-0.25474772
42	0xbeafd006	-0.34338397
43	0xbefa0b1f	-0.4883661
44	0xbf22ff6a	-0.6367098
45	0xbf1fa0db	-0.6235482
46	0xbf045c37	-0.5170321
47	0x3ee094ff	0.43863675
48	0xbdaf26f3	-0.08552351
49	0xbf2a34dc	-0.66486907
50	0xbeea8f0e	-0.45812267
51	0xbf1a6aa9	-0.60319
52	0xbecb7866	-0.39740294
53	0xbf13e538	-0.57771635
54	0xbf11da5d	-0.5697382
55	0xbeecbee6	-0.46239394
56	0xbf08f121	-0.53492934
57	0xbefef9fd	-0.498001
58	0x3fc2429c	1.5176578
59	0xbeec45fc	-0.46147144
60	0xbecc3771	-0.39886048
61	0x404edebd	3.2323449
62	0x3dec852b	0.11548837
63	0xbed86371	-0.42263368
64	0x3e3eb85c	0.18625015
65	0xbee87528	-0.45401883
66	0x407c9c31	3.9470332
67	0xbf100186	-0.56252325
68	0xbf31046a	-0.6914736
69	0xbee4729d	-0.44618693
70	0xbe996581	-0.29960254
71	0xbe967b21	-0.29390815
72	0x3f465f80	0.7748947
73	0xbdaf683c	-0.08564803
74	0xbe1f0871	-0.15530564
75	0xbeb6b11f	-0.35682008
76	0xbf0583ef	-0.5215444
77	0xbd540dd9	-0.05177102
78	0xbf058fa7	-0.5217232
79	0x3ecaec0f	0.39633223
80	0xbdab14ba	-0.08353563
81	0xbe422a04	-0.1896134
82	0xbec8b466	-0.39200133
83	0xbec313cb	-0.38101038
84	0xbf0d1449	-0.5510908
85	0xbf1d1f21	-0.61375624
86	0xbeab5f50	-0.33471155
87	0xbf04d1d5	-0.5188268
88	0xbeb633ae	-0.35586303
89	0xbecf4eb4	-0.40489733
90	0xbe67aa3a	-0.2262353
91	0xbeaf2359	-0.34206656
92	0xbeb579cc	-0.35444486
93	0x40605863	3.5053947
94	0xbd0e7b0f	-0.034785327
95	0x3f785062	0.96997654
96	0x4010c056	2.2617393
97	0xbecb4d37	-0.39707348
98	0x408078d2	4.0147486
99	0xbeb11af1	-0.34590867
100	0xbedf49fd	-0.43611136
101	0xbf2cbc53	-0.6747486
102	0xbec65e8b	-0.38744006
103	0xbf050cfb	-0.5197293
104	0xbeaab885	-0.33343902
105	0xbed2de98	-0.4118545
106	0xbf2e870b	-0.6817481
107	0xbf335347	-0.70048946
108	0xbea015b2	-0.31266552
109	0x3f53bcd2	0.8270999
110	0xbecb117b	-0.39661774
111	0xbf6328eb	-0.8873431
112	0x3dd1d906	0.10246472
113	0xbebe6f69	-0.37194374
114	0xbf09ef02	-0.5388032
115	0xbee3518a	-0.44398147
116	0xbf02829f	-0.5098056
117	0xbe9ef542	-0.31046492
118	0xbe6a2f08	-0.22869503
119	0xbecb1530	-0.39664602
120	0xbeadf8e4	-0.3397895
121	0xbf0c40d4	-0.5478642
122	0x3e164f3f	0.14678667
123	0xbf014bff	-0.50506586
124	0xbe1007df	-0.14065503
125	0x3fef9241	1.8716508
126	0x3db4703f	0.08810472
127	0xbdb8b5da	-0.090190604

fc3.bias f4 [4]
0	0x3c406679	0.011743181
1	0xbe54a89b	-0.20767443
2	0x3e6bd68f	0.23031066
3	0x3e76523a	0.24054804
