src/models/loan_prediction.pth (torch, 5035 bytes, 6 tensors)

fc1.weight f4 [20, 11]
-1.4430608 1.2683638 -2.12791 -0.56131613 0.4095171 0.026073683 -0.02353592 0.30474064
0.11881923 -11.350421 -0.5191572 8.405649 8.493902 -3.1174607 3.969899 1.4721603
-0.0017778558 0.06633478 0.6220218 -0.59093165 -4.6409926 3.1180222 -0.062051088 0.2256245
-0.048598617 0.03190416 0.27301133 -0.27970314 -0.18981284 -0.0763322 -0.11752911 0.26050603
-0.19543353 3.107683 -0.34701142 0.71902007 0.36836386 -2.4335546 0.025241505 0.042048093
-0.30580327 -0.09864419 12.782219 1.6253538 12.018788 8.01726 9.622313 2.864905
-22.09252 -0.09382092 0.04833069 0.026727015 0.26623812 -12.018096 -0.20352888 10.285638
-2.9602113 3.3651454 -6.6043615 -3.030729 0.040072992 0.0303661 -0.89573145 -0.09537821
-8.373379 -3.387627 1.077274 8.312808 16.90746 1.752581 -0.821081 -0.2217949
0.014316432 0.39747247 1.176153 -1.0312976 -9.39013 13.963549 -2.5380018 1.016619
-6.628458 -5.516654 0.054375634 -0.10896836 -0.5723364 -2.271494 -1.3961987 0.07974217
-10.261209 -5.8560967 -7.6889834 3.3741267 3.3790157 0.016609099 -0.3019336 0.010643855
-0.050189547 10.1969 -2.5546658 -0.17361611 0.28364658 0.20316374 -0.13146652 -0.07588582
-0.28721914 -0.0054194033 -0.2270558 -0.2325728 -0.016613156 0.045270443 -0.123478025 0.17891008
-0.18348145 0.2735824 0.2066257 -0.25425938 -0.07504144 0.013604969 0.04399082 0.07151073
0.11832157 0.018060565 -0.14711605 0.14267185 -0.28922442 -0.1787078 -0.07547729 -0.14687021
-0.105478734 -0.24712524 -0.06413603 0.064449996 -4.897475 -2.1820977 0.5576025 -1.4007037
-3.354242 -0.07627476 0.076031044 0.29246882 0.2788594 12.864183 1.5907363 -0.021805793
-0.27085412 -0.14293966 0.20530063 -0.0019545555 -0.14986512 -0.23105168 -0.28217 -0.25447804
-0.061157584 0.16535065 0.1630094 -0.29078716 0.18807736 -0.23593548 -0.06374259 -0.122254595
-0.058075696 -0.059199557 -0.2705612 -0.2603363 -0.047180325 1.7615427 -2.3383496 2.6325362
0.9891713 -1.5929092 0.04961237 -0.05047445 0.2136374 0.0070235254 13.860164 1.0238861
-4.420609 1.8885514 3.080682 -0.11043441 11.706339 -0.063355915 0.10253178 -0.10106879
0.18850228 -12.144417 -3.133352 -0.06340948 -0.2484699 0.16337216 0.23939341 0.20630157
-0.21267956 0.013447374 -0.21254563 -0.16597722 -0.17569232 0.10304001 -0.17967458 -0.0065781474
0.012684017 0.19436115 -0.22791848 -0.20699123 -0.17507604 0.21103787 -0.10838278 0.2543214
0.10902879 -21.695683 17.287672 -3.928657 -2.3189793 -9.899756 -0.061564934 0.03831694
0.47960135 -0.97205174 0.75453025 -3.944859
00000000: 37b6 b8bf bf59 a23f ad2f 08c0 6ab2 0fbf
00000010: 3aac d13e 7a98 d53c 67ce c0bc f706 9c3e
00000020: 7f57 f33d 539b 35c1 7ce7 04bf 8a7d 0641
00000030: 06e7 0741 7a84 47c0 d312 7e40 c06f bc3f
00000040: f106 e9ba 87da 873d d23c 1f3f 4c47 17bf
00000050: 0383 94c0 ad8d 4740 4829 7ebd 1c0a 673e
00000060: 580f 47bd f0ad 023d 24c8 8b3e 4035 8fbe
00000070: 4c5e 42be 0e54 9cbd 1ab3 f0bd 0c61 853e
00000080: ba1f 48be 47e4 4640 7bab b1be b311 383f
00000090: 309a bc3e 5cbf 1bc0 46c7 ce3c 9f3a 2c3d
000000a0: 3f92 9cbe f705 cabd f883 4c41 980b d03f
000000b0: f54c 4041 b246 0041 fef4 1941 9b5a 3740
000000c0: 7bbd b0c1 2f25 c0bd 67f6 453d 9df2 da3c
000000d0: 5d50 883e 1f4a 40c1 e069 50be f991 2441
000000e0: 1a74 3dc0 8b5e 5740 ee56 d3c0 77f7 41c0
000000f0: 9423 243d 54c2 f83c a84e 65bf a755 c3bd
00000100: 5cf9 05c1 e1ce 58c0 1de4 893f 4301 0541
00000110: 7a42 8741 9354 e03f 5d32 52bf 341e 63be
00000120: 788f 6a3c 8381 cb3e 2e8c 963f 8f01 84bf
00000130: f93d 16c1 b26a 5f41 9f6e 22c0 9220 823f
00000140: 541c d4c0 6e88 b0c0 fcb8 5e3d ce2a dfbd
00000150: a384 12bf 2860 11c0 a4b6 b2bf dd4f a33d
00000160: e92d 24c1 2565 bbc0 270c f6c0 b1f1 5740
00000170: cb41 5840 ce0f 883c 0a97 9abe 9063 2e3c
00000180: 8e93 4dbd 8126 2341 a57f 23c0 6cc8 31be
00000190: 203a 913e 280a 503e 299f 06be 066a 9bbd
000001a0: 630e 93be 4095 b1bb 5181 68be 9027 6ebe
000001b0: 5018 88bc 806d 393d 0ce2 fcbd 3434 373e
000001c0: 90e2 3bbe fe12 8c3e b095 533e 492e 82be
000001d0: 54af 99bd 60e7 5e3c b82f 343d 3874 923d
000001e0: 9452 f23d c0f3 933c 97a5 16be 9218 123e
000001f0: 3915 94be 2dff 36be d693 9abd 2565 16be
00000200: 3c05 d8bd 660e 7dbe c059 83bd 5cfe 833d
00000210: 1db8 9cc0 7da7 0bc0 0abf 0e3f 424a b3bf
00000220: e7ab 56c0 f135 9cbd 2ab6 9b3d 79be 953e
00000230: a9c6 8e3e b2d3 4d41 3f9d cb3f 10a2 b2bc
00000240: 64ad 8abe c65e 12be 543a 523e 0018 00bb
00000250: 3e76 19be d098 6cbe 9678 90be f24a 82be
00000260: 6080 7abd ae51 293e f0eb 263e 0ee2 94be
00000270: 5a97 403e 1299 71be 7a8b 82bd 9e60 fabd
00000280: c8e0 6dbd 3c7b 72bd ff86 8abe cd4a 85be
00000290: 2840 41bd 3b7a e13f 85a7 15c0 797b 2840
000002a0: 553a 7d3f 73e4 cbbf 5736 4b3d 4cbe 4ebd
000002b0: c3c3 5a3e 9a25 e63b 3bc3 5d41 b30e 833f
000002c0: a175 8dc0 0dbc f13f e529 4540 702b e2bd
000002d0: 2a4d 3b41 bfc0 81bd 2ffc d13d 27fd cebd
000002e0: be06 413e 884f 42c1 d788 48c0 d4dc 81bd
000002f0: e56e 7ebe 084b 273e 8c23 753e b840 533e
00000300: acc8 59be 6052 5c3c 90a5 59be eff5 29be
00000310: b0e8 33be a406 d33d 9dfc 37be 808d d7bb
00000320: a0d0 4f3c 9c06 473e 7663 69be 82f5 53be
00000330: 2247 33be 501a 583e caf7 ddbd 6a36 823e
00000340: 7c4a df3d c290 adc1 274d 8a41 1e6f 7bc0
00000350: 286a 14c0 6765 1ec1 832b 7cbd 39f2 1c3d
00000360: 4f8e f53e 62d8 78bf e528 413f 9278 7cc0

fc1.bias f4 [20]
-0.22216041 1.7924675 0.10891706 0.38318226 0.30656773 -1.8584899 0.23737672 -1.9327452
-0.3287805 -0.04465002 0.0032980144 0.24868882 -1.0377808 0.27006155 0.18443826 0.5894351
1.1394838 -0.21313718 -0.1277881 1.2357917
00000000: 057e 63be 936f e53f e80f df3d 7730 c43e
00000010: 72f6 9c3e ffe2 edbf e212 733e 3264 f7bf
00000020: eb55 a8be f0e2 36bd 8023 583b 48a8 7e3e
00000030: 00d6 84bf 8245 8a3e 62dd 3c3e 38e5 163f
00000040: 9bda 913f a240 5abe e2da 02be 6c2e 9e3f

fc2.weight f4 [20, 20]
-0.054902382 0.13562341 -0.07198258 -0.044689834 0.0729407 -0.22623295 0.054354522 -0.33261812
0.0776303 -0.0380169 -0.117767654 0.029554337 0.037013773 -0.06536463 -0.13275403 -0.1622927
-0.29381597 0.100934744 -0.10739023 -0.16381021 -0.01987202 0.0919584 0.11841628 0.18266979
0.10783903 0.20011611 -0.7229605 0.031238856 0.15378521 0.060796946 -0.10579852 -0.1051125
-0.2578971 0.048309803 -0.12548423 -1.9848386 0.09061159 -0.14521275 -0.025437862 -0.6021816
0.23733555 -0.16073091 -0.18074623 0.20025387 -0.03349274 0.110842094 0.108685784 0.07759467
-0.16915067 -0.0099440515 -0.13618642 0.07562402 0.066806704 -0.0046126842 -0.050289646 -0.4209364
0.113719955 -0.1664583 0.091603994 0.060650732 -0.074092396 -0.10543603 -0.11615411 0.105393626
0.0011033021 -0.1343997 -0.23138714 -0.02511351 0.053981125 -0.028147325 -0.18331009 -0.034469903
0.66184497 -0.081589 0.084876925 0.1478531 -0.91175824 0.0022051781 0.0924612 -0.68419236
-0.10458416 -0.018265301 -0.17578797 -0.042689748 -0.023147581 0.3527371 -0.08431513 -0.10633748
0.19468427 -0.10878015 -0.18530035 -0.1922842 -0.1089158 0.14194322 -0.15456456 -0.08452417
-0.05705702 0.22352067 0.19552064 -0.014869821 -0.12587619 -0.8458537 0.18359211 0.08278741
-0.1915381 0.2726791 0.34959 0.43253252 0.17985368 0.06415275 -0.07838814 0.17471665
0.22980821 0.08705291 0.039717436 -0.041300494 -0.15932012 0.10902426 -0.15618286 0.0910073
-0.3645173 -0.03683028 -0.17956872 0.27242774 -0.4709892 0.18773073 -0.28369108 -0.27922663
-0.15259624 -0.036130965 -0.14521748 0.15527177 -0.30663356 -0.10909808 -0.2160246 -0.18376729
0.19101126 0.18308032 0.16006619 0.30469546 0.16434512 -0.088473685 0.09838745 0.09259135
0.06746174 0.18796271 0.3318888 0.19673757 -0.15470636 0.10729268 0.025693879 -0.053401172
-0.13732149 -0.12546948 -0.17206115 0.11177709 0.053623985 -0.02544929 -0.12939812 0.32365325
0.13092244 -0.02080707 -0.10557266 0.20632339 0.0268472 -0.18655704 0.014604698 0.11588543
-0.07452904 0.12570158 -0.12705094 -0.03504239 0.07936757 0.0092392415 -0.15813878 -0.08633644
-0.08692382 -0.043140188 0.021399304 0.066789635 -0.4742758 -0.23962191 0.011460811 -0.248986
0.12368926 -0.42889106 0.28531423 -0.16617216 0.54471356 0.08056405 -0.15878993 0.083120644
0.16067718 0.014666006 -0.14903118 -0.0051084734 -0.123298325 -0.17045948 0.11109015 -0.27522823
-0.22447611 -0.180052 -0.045361623 0.20608419 -0.19988677 0.1533659 -0.25483745 -0.009638379
0.028390046 -0.20163052 0.18544361 0.120399624 0.24612331 0.11296889 -0.14759591 0.17543252
0.123801135 0.106038034 -0.17929444 -0.20574622 -0.2195545 -0.087093174 0.048238963 -0.17556751
0.07127786 0.12003365 0.03115049 -0.14961159 -0.17336676 -0.068986416 0.09815404 0.22056493
0.12858039 -0.02518019 0.078400224 -0.21937233 -0.19098285 0.10433671 -0.12665428 0.10757625
-0.19833083 -0.1775852 -0.18418245 0.20950039 -0.017733455 0.30936405 -0.04730816 0.56318074
-0.22649744 -0.069134295 -0.048619196 0.029717475 0.17837164 -0.15665665 0.18766823 -0.075646125
00000000: 52e1 60bd dde0 0a3e 9a6b 93bd b00c 37bd
00000010: ef61 953d 9ca9 67be d9a2 5e3d ec4c aabe
00000020: a2fc 9e3d 9cb7 1bbd 2b30 f1bd f01b f23c
00000030: c19b 173d e4dd 85bd acf0 07be 0f30 26be
00000040: 0c6f 96be e0b6 ce3d 69ef dbbd ddbd 27be
00000050: a6ca a2bc b054 bc3d 3c84 f23d ca0d 3b3e
00000060: b6da dc3d 3deb 4c3e f013 39bf a1e8 ff3c
00000070: df79 1d3e 3806 793d e5ac d8bd 3945 d7bd
00000080: 170b 84be 80e0 453d f07e 00be 310f febf
00000090: 9292 b93d a7b2 14be 1063 d0bc 9328 1abf
000000a0: 1708 733e a596 24be 8a15 39be 5a0f 4d3e
000000b0: af2f 09bd 2e01 e33d a796 de3d f4e9 9e3d
000000c0: d535 2dbe 60ec 22bc 7474 0bbe c4e0 9a3d
000000d0: f4d1 883d 0026 97bb 84fc 4dbd fa84 d7be
000000e0: 02e6 e83d 0b74 2abe e09a bb3d e76c 783d
000000f0: c1bd 97bd d8ee d7bd 35e2 edbd 9dd8 d73d
00000100: ad9c 903a 13a0 09be c0f0 6cbe d9ba cdbc
00000110: 501b 5d3d 3895 e6bc a4b5 3bbe 5030 0dbd
00000120: ac6e 293f 2218 a7bd f4d3 ad3d ce66 173e
00000130: fd68 69bf c084 103b 4c5c bd3d 3b27 2fbf
00000140: 3830 d6bd 1da1 95bc c301 34be 72db 2ebd
00000150: ff9f bdbc f599 b43e 69ad acbd 77c7 d9bd
00000160: 505b 473e 21c8 debd 60bf 3dbe 26e6 44be
00000170: 3f0f dfbd 9059 113e 2c46 1ebe 021b adbd
00000180: 9fb4 69bd 9ae2 643e 9036 483e 8da0 73bc
00000190: b0e5 00be de89 58bf 92ff 3b3e 728c a93d
000001a0: 9022 44be 989c 8b3e 76fd b23e e774 dd3e
000001b0: 902b 383e 8462 833d f689 a0bd ece8 323e
000001c0: d852 6b3e cc48 b23d c0ae 223d b52a 29bd
000001d0: d024 23be 1c48 df3d 66ee 1fbe 0962 ba3d
000001e0: 03a2 babe 59db 16bd dde0 37be a67b 8b3e
000001f0: 7f25 f1be 7c3c 403e f53f 91be cbf6 8ebe
00000200: 3042 1cbe 10fe 13bd e4b3 14be 90ff 1e3e
00000210: 13ff 9cbe d06e dfbd 8e35 5dbe 7e2d 3cbe
00000220: 7598 433e 6879 3b3e 64e8 233e 0b01 9c3e
00000230: 164a 283e b131 b5bd 5c7f c93d 89a0 bd3d
00000240: 6129 8a3d 4c79 403e 54ed a93e 9375 493e
00000250: 586b 1ebe 44bc db3d f87b d23c 30bb 5abd
00000260: 019e 0cbe 127b 00be cc30 30be 63eb e43d
00000270: d3a4 5b3d 087b d0bc f180 04be e1b5 a53e
00000280: 8810 063e 9773 aabc 7b36 d8bd 7046 533e
00000290: a9ee db3c cf08 3fbe 8b48 6f3c 5755 ed3d
000002a0: aea2 98bd eab7 003e a419 02be 9c88 0fbd
000002b0: 778b a23d 3060 173c 22ef 21be 29d1 b0bd
000002c0: 1e05 b2bd c4b3 30bd 984d af3c 01c9 883d
000002d0: 47d4 f2be 725f 75be 20c6 3b3c 30f6 7ebe
000002e0: cb50 fd3d 9c97 dbbe b514 923e 0929 2abe
000002f0: 5972 0b3f c4fe a43d d499 22be 283b aa3d
00000300: 8f88 243e b049 703c a19b 18be fb64 a7bb
00000310: d583 fcbd ee8c 2ebe 3c83 e33d b7ea 8cbe
00000320: 11dd 65be 8d5f 38be 1ccd 39bd bc07 533e
00000330: 1eaf 4cbe f30b 1d3e 0e7a 82be 4bea 1dbc
00000340: 3e92 e83c 3b78 4ebe eee4 3d3e 1494 f63d
00000350: c007 7c3e 3c5c e73d 6223 17be 95a4 333e
00000360: 738b fd3d 782a d93d f698 37be 23af 52be
00000370: e5d2 60be e85d b2bd 3896 453d f8c7 33be
00000380: 20fa 913d 34d4 f53d 502f ff3c c833 19be
00000390: 0e87 31be c048 8dbd fc04 c93d c6db 613e
000003a0: 94aa 033e b046 cebc 4c90 a03d 24a3 60be
000003b0: 0291 43be 7cae d53d a9b1 01be f050 dc3d
000003c0: 3d17 4bbe e5d8 35be 539a 3cbe 4587 563e
000003d0: c045 91bc f764 9e3e 34c6 41bd 9d2c 103f
000003e0: f2ee 67be 4896 8dbd ec24 47bd 1072 f33c
000003f0: 0ea7 363e 9a6a 20be 1a2c 403e 5bec 9abd

fc2.bias f4 [20]
-0.4879456 0.8095149 1.6314118 0.8739215 -1.5198652 -0.059454396 -0.99838215 0.09630776
-0.0396865 -0.34325466 0.20888786 -0.09136142 -1.0031364 -0.035375718 -0.31580615 -0.21478413
0.21935515 -0.5326118 1.2080584 -0.027242294
00000000: 01d4 f9be 5e3c 4f3f 1ad2 d03f 52b9 5f3f
00000010: f18a c2bf 7486 73bd f995 7fbf 013d c53d
00000020: 508e 22bd 13bf afbe b3e6 553e b21b bbbd
00000030: c666 80bf 21e6 10bd 58b1 a1be 5ff0 5bbe
00000040: a39e 603e 3f59 08bf a8a1 9a3f 3b2b dfbc

out.weight f4 [2, 20]
0.01000581 0.14212807 0.19377711 -0.17246118 0.15156572 0.057447247 -0.1966047 0.11143078
0.0075841746 0.556611 -0.1683864 -0.03222704 -0.10054155 0.0806063 -0.0447481 0.20770156
-0.015457451 0.10513341 -0.26335004 0.042226505 0.12995651 -0.33949915 -0.053554438 -0.012841708
-0.028040959 0.30570883 0.13043547 -0.12306832 0.03434959 -0.3097299 0.041906726 -0.1379358
0.20517762 0.20365007 0.15187788 -0.2448721 0.13911162 -0.27979437 0.46787947 -0.07023408
00000000: 69ef 233c 058a 113e 826d 463e aa99 30be
00000010: 0b34 1b3e ce4d 6b3d be52 49be d235 e43d
00000020: ab84 f83b 0f7e 0e3f 7c6d 2cbe 8000 04bd
00000030: bae8 cdbd ea14 a53d c949 37bd b8af 543e
00000040: 4041 7dbc 2f50 d73d d1d5 86be b3f5 2c3d
00000050: 5213 053e d5d2 adbe e65b 5bbd 0766 52bc
00000060: 27b6 e5bc de85 9c3e e090 053e 3e0b fcbd
00000070: 28b2 0c3d eb94 9ebe 63a6 2b3d 0b3f 0dbe
00000080: 151a 523e a589 503e e085 1b3e c0bf 7abe
00000090: 4773 0e3e 3541 8fbe e68d ef3e e3d6 8fbd

out.bias f4 [2]
-0.15387948 0.12708174
00000000: 9592 1dbe b721 023e
